saved_models/barlowtwins-encoder-seed-1-DQZWZT-SonyAIBORobotSurface1.ckpt (torch, 898923 bytes, 60 tensors)

encoder.0.block.0.weight f4 [64, 2, 3, 4]
0.10204506 -0.096390374 -0.04723733 0.08542624 -0.19884878 0.11113183 -0.05277902 0.091969036
0.028741704 -0.008502177 0.06872272 0.021788243 0.065990426 -0.088065065 -0.019210545 -0.019809045
0.022790384 0.0011350549 0.17316408 0.06598413 -0.079274125 -0.1371382 -0.02940961 -0.08827042
-0.07143785 0.0065153087 0.12908894 0.10863719 -0.20784985 0.11801214 0.044897173 0.1810211
0.1434085 -0.17686762 -0.19040398 -0.090227306 0.18475157 -0.03008795 0.08626019 -0.09299972
0.19348477 -0.07561952 0.14968595 -0.00527821 -0.10764043 0.113438316 -0.10430027 0.054535132
-0.04915361 -0.007639813 -0.18090026 -0.09429717 0.1122089 -0.034757152 0.20996754 0.1706224
-0.015172467 -0.15611935 0.117878415 0.058775455 -0.13870604 0.1282295 0.12420919 0.18087447
-0.122011594 -0.037332684 -0.012251504 0.02973376 -0.14240417 -0.14097467 0.10813355 -0.046899464
0.09692702 0.0111961635 0.07197148 0.052124493 0.07165622 0.09277068 -0.19681664 0.10691062
-0.14068292 -0.1497457 0.023287712 -0.03981989 0.114463575 -0.12545942 -0.16962126 0.15448144
-0.026127495 0.11922195 0.062147435 -0.15408027 0.042196307 0.045982696 -0.13112418 -0.086292505
0.072073296 0.039302565 -0.077489436 -0.05174858 0.19208726 -0.026049266 0.12629291 0.10701026
-0.13086554 -0.17496173 0.18794584 -0.0089491615 0.14739054 0.040374678 0.06973779 0.16157928
0.18866754 -0.13019457 0.02493965 0.14319006 0.14752993 0.12750119 -0.12817939 -0.1455447
-0.12978 0.014211722 0.20010112 -0.12578301 0.11826342 -0.10645783 -0.19848865 -0.06127346
0.116453744 0.18997781 -0.12449487 0.062089287 0.1821519 0.13130547 0.12402493 0.15580593
0.12472226 0.05859313 -0.12685364 -0.16107245 -0.10012188 -0.026697716 -0.13025858 0.062129572
0.06504919 -0.0418106 0.08256588 0.06894531 0.11953831 0.12973784 -0.06822424 0.20520125
-0.020956537 0.0010608746 -0.19514675 -0.13848059 -0.12940602 -0.09217812 0.15060121 -0.06597639
-0.15046017 0.07725814 0.061829176 0.12579468 -0.10760646 0.049538776 -0.07086189 -0.039949585
-0.16034742 -0.08650725 -0.05553289 0.1026186 0.036763508 0.050731175 0.21284202 0.19829394
0.13982889 0.003998089 -0.14882977 0.14961232 -0.05396717 -0.015370354 -0.1759984 -0.04294758
-0.12172035 0.18994403 -0.17504138 -0.15762398 -0.009084722 -0.10203504 0.07645098 -0.08647039
-0.095384836 0.021842789 0.15926829 -0.12272746 0.09387902 0.120913535 0.19525824 -0.13815995
0.049547847 -0.1436225 0.1732896 -0.08897176 0.12140472 0.004527572 -0.005959905 -0.0084474
0.050266754 0.10416829 0.022293039 0.06176744 -0.18738136 0.15061578 0.19319168 0.16738914
0.15928373 -0.13936025 -0.07054839 0.18136042 -0.1582877 0.18268923 -0.1612014 -0.14874655
0.095790185 -0.14432059 -0.048582163 0.15412483 0.15704069 0.20267926 -0.036584828 -0.1590015
0.2015643 -0.047515146 -0.08584237 0.040940408 -0.14805093 0.13520618 0.12304663 -0.15758431
-0.17962596 -0.021119203 0.08693604 -0.0018383022 -0.0945058 0.011757464 -0.17708358 -0.122652404
-0.13911168 0.17122504 0.17591771 -0.08321755 0.0059818774 0.09389521 0.031228758 -0.10854054
00000000: 00fd d03d 5168 c5bd ee7b 41bd f4f3 ae3d
00000010: 049f 4bbe 1699 e33d d02e 58bd 435a bc3d
00000020: b973 eb3c b74c 0bbc 7fbe 8c3d 427d b23c
00000030: fd25 873d 755b b4bd 6f5f 9dbc 9446 a2bc
00000040: e6b2 ba3c 1fc6 943a ed51 313e b022 873d
00000050: 795a a2bd f56d 0cbe 6cec f0bc 1fc7 b4bd
00000060: 024e 92bd 5f7e d53b e42f 043e 2d7d de3d
00000070: 97d6 54be 59b0 f13d 19e6 373d 985d 393e
00000080: aed9 123e c91c 35be 43f9 42be 18c9 b8bd
00000090: 842f 3d3e 017b f6bc 2fa9 b03d a376 bebd
000000a0: df20 463e 68de 9abd 4647 193e d6f4 acbb
000000b0: 9672 dcbd 5952 e83d 619b d5bd 3b60 5f3d
000000c0: 4c55 49bd 6557 fabb eb3d 39be e01e c1bd
000000d0: c8cd e53d 845d 0ebd bb01 573e a3b7 2e3e
000000e0: f095 78bc c0dd 1fbe 3d6a f13d 88be 703d
000000f0: f508 0ebe 984e 033e 6361 fe3d 2837 393e
00000100: 37e1 f9bd 28ea 18bd 88ba 48bc 3794 f33c
00000110: 66d2 11be aa5b 10be 1f75 dd3d a719 40bd
00000120: ac81 c63d 1d70 373c c965 933d 7e80 553d
00000130: 7fc0 923d 8efe bd3d 4d8a 49be f5f3 da3d
00000140: 2f0f 10be f056 19be dfc5 be3c 2e1a 23bd
00000150: e16b ea3d 6f78 00be 32b1 2dbe 6230 1e3e
00000160: 5409 d6bc a32a f43d 4f8e 7e3d 38c7 1dbe
00000170: 09d6 2c3d 5a58 3c3d 6b45 06be 20ba b0bd
00000180: 2a9b 933d bafb 203d c8b2 9ebd 52f6 53bd
00000190: 86b2 443e 4565 d5bc ee52 013e 3228 db3d
000001a0: 9e01 06be 2b29 33be e074 403e 819f 12bc
000001b0: 8ced 163e eb5f 253d b0d2 8e3d 0a75 253e
000001c0: 1032 413e ba51 05be 3d4e cc3c 6aa0 123e
000001d0: 1612 173e ac8f 023e 7541 03be ab09 15be
000001e0: 0ce5 04be 48d8 683c 4fe7 4c3e 43cd 00be
000001f0: 1834 f23d 9006 dabd 9c40 4bbe e1f9 7abd
00000200: 4d7f ee3d 8b89 423e 2bf7 febd 5651 7e3d
00000210: 0786 3a3e f174 063e c800 fe3d 978b 1f3e
00000220: 626e ff3d 5aff 6f3d ece5 01be 2df0 24be
00000230: b30c cdbd 2bb5 dabc 8162 05be 947b 7e3d
00000240: 8238 853d 9741 2bbd 4d18 a93d 3333 8d3d
00000250: 80d0 f43d ffd9 043e 26b9 8bbd 4720 523e
00000260: 0bad abbc 0b0d 8b3a 8dd4 47be dbcd 0dbe
00000270: 0383 04be e2c7 bcbd 3437 1a3e a11e 87bd
00000280: 3b12 1abe 8439 9e3d 9740 7d3d 52d0 003e
00000290: c760 dcbd 2ce9 4a3d 0a20 91bd 2da2 23bd
000002a0: 1d32 24be b72a b1bd 7576 63bd b329 d23d
000002b0: 5595 163d 7ecb 4f3d 42f3 593e 910d 4b3e
000002c0: 4e2f 0f3e 6702 833b d566 18be f933 193e
000002d0: ae0c 5dbd f0d3 7bbc ed38 34be cde9 2fbd
000002e0: 8548 f9bd b080 423e 0c3e 33be 2e68 21be
000002f0: 16d8 14bc bff7 d0bd 5592 9c3d 6317 b1bd
00000300: 2059 c3bd a6ef b23c 3a17 233e 8958 fbbd
00000310: a543 c03d 84a1 f73d c7f1 473e cd79 0dbe
00000320: aff2 4a3d c711 13be d472 313e d336 b6bd
00000330: 0aa3 f83d 075c 943b 4f4b c3bb f766 0abc
00000340: 83e4 4d3d 2f56 d53d e49f b63c dbff 7c3d
00000350: e6e0 3fbe 063b 1a3e 0ad4 453e 0f68 2b3e
00000360: 461b 233e 74b4 0ebe ad7b 90bd 8cb6 393e
00000370: 2c16 22be e312 3b3e fb11 25be 0451 18be
00000380: a52d c43d c7c8 13be 17fe 46bd e6d2 1d3e
00000390: 46cf 203e 278b 4f3e f9d9 15bd 4ad1 22be
000003a0: df66 4e3e 3e9f 42bd 20ce afbd 21b1 273d
000003b0: aa9a 17be 7d73 0a3e dfff fb3d c85d 21be
000003c0: deef 37be 2e02 adbc 860b b23d 30f3 f0ba
000003d0: 428c c1bd 61a2 403c 6655 35be 2f31 fbbd
000003e0: 4b73 0ebe 9e55 2f3e c623 343e f66d aabd
000003f0: a003 c43b 224c c03d 74d3 ff3c 814a debd

encoder.0.block.0.bias f4 [64]
-0.040396016 0.03566367 0.12667616 0.08509864 0.08379309 0.058059964 -0.1579541 -0.12328477
-0.15259257 0.1307351 -0.17920353 -0.14626692 0.1408534 0.11960205 -0.1976931 0.123037286
-0.05438798 0.03929634 -0.11831307 -0.031478725 0.039212365 0.15620439 0.12624118 -0.11282741
-0.12947409 -0.00729549 0.06853172 0.10798906 -0.19927885 -0.015253856 0.011249153 -0.099185474
0.16041067 -0.059281204 -0.19307679 -0.11599083 0.0076475544 -0.15409836 0.046355054 0.20142671
0.016356766 -0.051358268 0.19508305 0.1443469 0.13630545 0.015287485 0.009531343 -0.15567726
0.027857205 0.19643798 0.022407029 -0.19333613 0.12342249 0.19036578 0.17009479 0.010360389
0.043281112 0.033667248 -0.08291823 -0.037368424 0.1643749 0.017597307 0.18935966 -0.13302654
00000000: 4b76 25bd 1214 123d 65b7 013e 3248 ae3d
00000010: b69b ab3d 49d0 6d3d b8be 21be ba7c fcbd
00000020: 3a41 1cbe 6cdf 053e 2181 37be ffc6 15be
00000030: e03b 103e ebf1 f43d 0f70 4abe f9fa fb3d
00000040: eec5 5ebd 33f5 203d 1f4e f2bd d6ef 00bd
00000050: 259d 203d 0bf4 1f3e 5e45 013e 0f12 e7bd
00000060: db94 04be 010f efbb 5c5a 8c3d 5e29 dd3d
00000070: c10f 4cbe 4feb 79bc 5e4e 383c c121 cbbd
00000080: b242 243e d9d0 72bd ecb5 45be 9a8c edbd
00000090: 5698 fa3b f6cb 1dbe ccde 3d3d ce42 4e3e
000000a0: a0fe 853c 0c5d 52bd dac3 473e accf 133e
000000b0: a893 0b3e 5c78 7a3c 5a29 1c3c dc69 1fbe
000000c0: cb34 e43c 0a27 493e f28e b73c e8f9 45be
000000d0: eec4 fc3d 3fef 423e 542d 2e3e 9fbe 293c
000000e0: 8947 313d abe6 093d 08d1 a9bd a20f 19bd
000000f0: e551 283e 3a28 903c 80e7 413e 1c38 08be

encoder.0.block.1.weight f4 [64]
1.0066247 1.0008185 0.9963411 1.0017843 0.99441665 1.0005735 0.99590725 1.0068117
1.012976 0.99828494 0.9972379 0.99997157 0.99449736 0.99426436 1.0043708 0.9863861
1.0109055 1.0125347 0.99080294 0.99722415 1.0071123 1.002362 0.9967573 1.0006126
1.0019903 1.0008849 0.9954549 0.99929184 1.0057279 1.0072138 0.9934472 1.003965
0.9867388 0.9914413 0.9990393 1.0045729 1.0052675 0.9966375 0.9932494 0.9993065
1.0009627 1.0096685 0.9952745 1.0067301 0.9998703 0.9950964 0.9946817 1.0046731
0.99944574 0.98810685 0.99941695 0.9979244 0.9898255 0.9938995 1.0119891 1.0079966
1.0024813 0.9938016 0.9940297 0.9905516 1.008806 1.0044173 0.99282956 1.0024503
00000000: 14d9 803f d21a 803f 3610 7f3f 783a 803f
00000010: 1792 7e3f cb12 803f c7f3 7e3f 35df 803f
00000020: 33a9 813f 9a8f 7f3f fc4a 7f3f 23fe 7f3f
00000030: 6197 7e3f 1c88 7e3f 398f 803f cd83 7c3f
00000040: 5a65 813f bd9a 813f 43a5 7d3f 154a 7f3f
00000050: 0ee9 803f 664d 803f 7d2b 7f3f 1314 803f
00000060: 3841 803f ff1c 803f 22d6 7e3f 97d1 7f3f
00000070: b1bb 803f 62ec 803f 8e52 7e3f ed81 803f
00000080: ea9a 7c3f 19cf 7d3f 0ac1 7f3f d895 803f
00000090: 9bac 803f a323 7f3f 9845 7e3f 8dd2 7f3f
000000a0: 8c1f 803f d13c 813f 4fca 7e3f 88dc 803f
000000b0: 80f7 7f3f a3be 7e3f 76a3 7e3f 2199 803f
000000c0: addb 7f3f 92f4 7c3f cad9 7f3f f977 7f3f
000000d0: 3465 7d3f 3370 7e3f dc88 813f 0806 813f
000000e0: 4f51 803f c869 7e3f bb78 7e3f ca94 7d3f
000000f0: 8e20 813f bf90 803f 142a 7e3f 4b50 803f

encoder.0.block.1.bias f4 [64]
0.004301388 -0.006134184 0.007766286 -0.011290371 -0.003475224 0.008343465 -0.0058653383 0.012208453
0.013897033 0.0030464137 -0.0024581472 0.0076605706 0.0073503624 0.0038709876 0.0073656254 -0.015035733
0.010355616 0.0061719823 0.0032430731 0.0018518167 0.01927175 0.015885973 0.0018124655 0.0024958225
0.005433975 0.0026763012 0.0021770257 0.00013443436 -0.0054767644 0.0018643291 -0.00799639 0.004047121
-0.0057464316 -0.005899437 -0.0052392813 -0.004813835 0.014694769 -0.002500269 -0.0020627328 0.00069588365
0.0051723057 0.004254052 0.024468297 0.004734956 -0.0019353512 -0.008061694 -0.009391095 0.0030914592
-0.007847321 -0.012456103 -0.0067135915 0.0065937657 -0.0030923742 -0.013526759 0.010441326 0.009005738
-0.005112848 -0.005724917 -0.014332109 0.010059984 0.014921334 -0.0024373934 -0.004006352 0.00013801553
00000000: a8f2 8c3b 4401 c9bb 547c fe3b 40fb 38bc
00000010: 95c0 63bb 07b3 083c 0632 c0bb f705 483c
00000020: 62b0 633c 57a6 473b de18 21bb 8605 fb3b
00000030: 4fdb f03b 65b0 7d3b 585b f13b 6f58 76bc
00000040: 9aaa 293c 573e ca3b bd89 543b a8b8 f23a
00000050: cadf 9d3c 4d23 823c 4090 ed3a f490 233b
00000060: 7c0f b23b e264 2f3b 6eac 0e3b f3f6 0c39
00000070: 6e76 b3bb 815c f43a 4a03 03bc b69d 843b
00000080: 904c bcbb 1050 c1bb 47ae abbb 60bd 9dbb
00000090: 54c2 703c 8edb 23bb ea2e 07bb f66b 363a
000000a0: 727c a93b 9365 8b3b bd71 c83c b127 9b3b
000000b0: 9cab fdba 3215 04bc 1bdd 19bc 149a 4a3b
000000c0: 0d92 00bc af14 4cbc b0fd dbbb 8410 d83b
000000d0: 6ea9 4abb 579f 5dbc 1812 2b3c ce8c 133c
000000e0: ad89 a7bb 1698 bbbb 39d1 6abc a2d2 243c
000000f0: 9c78 743c adbc 1fbb b747 83bb 43b8 1039

encoder.0.block.1.running_mean f4 [64]
-0.042156983 0.018141456 0.12887864 0.09861999 0.09387454 0.048129816 -0.1558183 -0.13849151
-0.15770708 0.13103138 -0.1984648 -0.14582354 0.15114114 0.110993005 -0.21605471 0.11287825
-0.062324427 0.042866226 -0.112854585 -0.04388963 0.03832752 0.16419302 0.11900018 -0.09838089
-0.13287854 -0.011553394 0.079530485 0.09466817 -0.21143122 -0.01726005 0.039189354 -0.110291354
0.16488351 -0.056412254 -0.17387877 -0.10830441 0.015269027 -0.149531 0.05439522 0.18902296
0.016698249 -0.06624341 0.19189642 0.15457916 0.13826764 0.034798644 0.011631493 -0.17442308
0.027588002 0.20202652 0.036176473 -0.19402184 0.10587553 0.19652443 0.15843502 0.0017391841
0.031165518 0.039103735 -0.080633245 -0.032059796 0.18455866 0.00068966096 0.18653232 -0.1348265
00000000: cdac 2cbd 649d 943c c3f8 033e 47f9 c93d
00000010: 4b41 c03d c523 453d d58e 1fbe b8d0 0dbe
00000020: f77d 21be 172d 063e 5b3a 4bbe c452 15be
00000030: bec4 1a3e 4d50 e33d 723d 5dbe b62c e73d
00000040: e647 7fbd 7f94 2f3d 4e20 e7bd 9dc5 33bd
00000050: 51fd 1c3d 3722 283e 5eb6 f33d ec7b c9bd
00000060: 5011 08be 724a 3dbc e1e0 a23d 63e1 c13d
00000070: 6d81 58be f364 8dbc 0485 203d 6fe0 e1bd
00000080: 39d7 283e 8910 67bd 470d 32be b4ce ddbd
00000090: f12a 7a3c a81e 19be 86cd 5e3d 3c8f 413e
000000a0: c4ca 883c a0aa 87bd 7f80 443e 004a 1e3e
000000b0: 0896 0d3e 0689 0e3d 0592 3e3c f79b 32be
000000c0: 3c00 e23c 0ae0 4e3e c82d 143d a9ad 46be
000000d0: 45d5 d83d b33d 493e ca3c 223e 56f5 e33a
000000e0: d44e ff3c 3d2b 203d 0b23 a5bd 2251 03bd
000000f0: f2fc 3c3e 5dca 343a 5402 3f3e f50f 0abe

encoder.0.block.1.running_var f4 [64]
0.1084384 1.0105467 0.69454366 0.7208883 0.67420065 0.635849 0.8338345 0.8150412
0.21366507 0.38482258 0.79211605 0.12744235 0.296645 0.6108478 0.5899088 0.62988293
0.23495072 0.3155351 0.49482208 0.5733906 0.1982597 0.9694192 0.4051216 0.5476443
0.21349682 0.8987702 1.4337593 1.7627542 0.51839536 0.43325105 0.86309546 0.92873454
0.5185458 0.53323376 1.7284794 0.4629792 0.20619714 0.559886 1.2666793 0.6688272
1.5588619 0.6495213 0.7527656 0.48604652 0.13442871 1.1991392 0.88763463 0.48623294
0.64266866 0.4563035 1.1353359 0.37922576 0.4433305 0.50485927 0.32737926 0.37912863
0.62942064 0.6995277 0.15328406 0.13924086 0.5262061 0.99784744 0.5305696 0.8571349
00000000: f414 de3d 9859 813f 9dcd 313f 238c 383f
00000010: 6a98 2c3f 00c7 223f 2e76 553f 8aa6 503f
00000020: 04cb 5a3e 7707 c53e 1ec8 4a3f 3f80 023e
00000030: dae1 973e 8560 1c3f 4304 173f 0240 213f
00000040: ec96 703e d18d a13e 5259 fd3e bac9 123f
00000050: 9704 4b3e db2b 783f 196c cf3e 6b32 0c3f
00000060: e99e 5a3e ce15 663f 6d85 b73f eea1 e13f
00000070: 8fb5 043f 15d3 dd3e d3f3 5c3f 8cc1 6d3f
00000080: 6bbf 043f 0282 083f d03e dd3f 9c0b ed3e
00000090: 5825 533e b054 0f3f 8c22 a23f 4238 2b3f
000000a0: c988 c73f 0747 263f 3fb5 403f 17db f83e
000000b0: aea7 093e 657d 993f 063c 633f 86f3 f83e
000000c0: ef85 243f 9da0 e93e b052 913f e129 c23e
000000d0: 37fc e23e 753e 013f 419e a73e 261d c23e
000000e0: b621 213f 3f14 333f 7ff6 1c3e 2895 0e3e
000000f0: 71b5 063f ee72 7f3f 69d3 073f 316d 5b3f

encoder.1.block.0.weight f4 [64, 64, 3, 4]
-0.003296623 -0.0016217489 -0.027000487 0.023965437 0.046854254 -0.021247279 0.030755054 0.035252817
-0.014842619 0.007316318 0.021540603 -0.016201861 -0.002167985 -0.013032154 0.031251326 0.010165421
0.027770922 0.033758182 -0.00017270628 -0.040342722 0.011890236 -0.010371482 0.0009126047 0.02556796
-0.015117568 -0.026193459 0.020144057 0.0014569268 0.018365573 0.018641947 0.019365605 -0.026605215
-0.0004272517 -0.0068737287 -0.035672817 0.0099086035 -0.0061146948 0.021701653 -0.027359348 0.05021246
-0.021269452 0.03163576 0.029798282 -0.0012034096 -0.011074381 -0.010494633 -0.011968469 0.010271986
0.018300684 0.012216052 -0.0190384 0.01950547 0.04626496 -0.0025642205 0.024137815 -0.0022087232
0.011273651 -0.030654317 -0.025689803 -0.002216289 -0.025200892 0.017434502 0.03056312 -0.011053677
-0.0038834508 0.007198367 -0.017372768 0.0023768041 0.032563552 0.031900264 -0.027041648 -0.0032509652
-0.02250655 0.0011882185 0.008971001 -0.001968772 0.034929726 0.03379228 -0.0069236867 -0.00437012
-0.011541038 -0.012748602 0.0044525494 0.027341897 -0.027815258 0.024546944 -0.023885272 -0.033446845
0.027026784 0.00447889 -0.02919643 0.011798698 -0.0114388885 -0.039699167 -0.028399488 -0.016577771
0.006665189 -0.023249207 -0.029200075 0.023263441 -0.025259001 0.012253604 0.038874663 -0.01059821
-0.030868843 0.0029226067 0.01999789 -0.0010930299 -0.012937863 0.013214635 -0.00048264343 0.011978484
0.023325413 0.014743015 -0.027607992 -0.010265889 0.022740092 0.01698405 0.0024307487 0.037855614
0.02914037 0.017385626 0.03179926 -0.028748242 0.0025246458 0.011616167 -0.013899985 -0.017877897
0.019346425 -0.03048806 -0.0020707604 0.025128858 -0.0026841774 -0.018312447 0.014687245 -0.010951208
0.0015448886 -0.031563874 0.009369671 -0.030997356 -0.003785613 -0.037056454 -0.032418564 0.031516623
-0.019361606 -0.005217018 0.002114068 0.026708256 0.019555308 0.020987814 -0.012709798 -0.009975365
0.0217187 0.0067763184 0.008449517 -0.028056586 -0.024138609 0.01079431 -0.03405201 0.014936529
0.03511194 -0.0031812636 -0.02525063 0.028206334 -0.022869846 -0.04048862 -0.031625252 0.009039654
0.0089104 0.03708229 0.023759633 0.019571867 0.004186621 0.03367698 -0.022951292 -0.009985344
0.026812417 -0.034231473 0.023941696 0.010051423 0.026154682 -0.009218494 -0.033511665 0.017701317
0.018471783 -0.021706164 -0.017710261 0.0059784567 0.011089548 -0.0110670375 -0.024150565 0.03506688
-0.018353995 0.035143886 -0.0020524797 0.035652637 0.010777137 0.022281796 0.023976175 -0.0042586485
0.0438434 0.008894828 -0.015883595 0.023581335 -0.024674991 0.021516703 -0.004630606 0.02468711
-0.0010436513 0.010586853 -0.014036364 0.021897703 0.024550164 -0.01852061 0.03675069 -0.032642547
-0.013870386 0.014186115 0.03649168 0.006906868 -0.006609117 0.007833188 -0.011436858 0.016924923
-0.0049071047 0.005858522 -0.03862301 0.01738151 0.032943565 -0.02896063 0.014358755 -0.02075817
-0.014673125 0.0387205 -0.045700543 -0.004478503 0.006528134 0.01986335 -0.02570704 -0.016489828
0.02321397 -0.05283291 0.0039428608 -0.024891526 -0.0010089785 0.04256479 -0.034471534 -0.01785109
-0.022611793 0.020499064 0.03952671 -0.025627369 0.04377953 0.00905507 -0.030975617 0.0050302385
00000000: 280c 58bb dd90 d4ba 2030 ddbc 2a53 c43c
00000010: 3fea 3f3d c60e aebc 06f2 fb3c 4265 103d
00000020: 752e 73bc b9bd ef3b eb75 b03c c4b9 84bc
00000030: c114 0ebb d184 55bc 6401 003d de8c 263c
00000040: d87f e33c 0546 0a3d 7d18 35b9 693e 25bd
00000050: 44cf 423c 26ed 29bc dd3b 6f3a e673 d13c
00000060: adaf 77bc aa93 d6bc 2605 a53c 5af6 be3a
00000070: 6673 963c ffb6 983c 9ea4 9e3c 2ef3 d9bc
00000080: c100 e0b9 043d e1bb a91d 12bd b257 223c
00000090: c75d c8bb aac7 b13c b620 e0bc 95ab 4d3d
000000a0: 463d aebc 8094 013d 871b f43c babb 9dba
000000b0: 5271 35bc aef1 2bbc 6617 44bc d54b 283c
000000c0: 51eb 953c d625 483c 6bf6 9bbc efc9 9f3c
000000d0: 5480 3d3d 7b0c 28bb abbc c53c 3ac0 10bb
000000e0: 1fb5 383c c31e fbbc 6c73 d2bc 293f 11bb
000000f0: 1a72 cebc cdd2 8e3c 825f fa3c 7b1a 35bc
00000100: 7e81 7ebb 47e0 eb3b 5651 8ebc 28c4 1b3b
00000110: 5c61 053d daa9 023d 7286 ddbc 250e 55bb
00000120: a85f b8bc ffbd 9b3a 1bfb 123c 8306 01bb
00000130: 7912 0f3d c669 0a3d 18e0 e2bb 3933 8fbb
00000140: 9f16 3dbc 83df 50bc b1e6 913b 1dfc df3c
00000150: d3dc e3bc ac16 c93c 0cab c3bc 8fff 08bd
00000160: 4667 dd3c a7c3 923b 5a2d efbc 544f 413c
00000170: 2d6a 3bbc 989b 22bd 0ba6 e8bc 1bce 87bc
00000180: a867 da3b 1f75 bebc ff34 efbc f992 be3c
00000190: f7eb cebc 57c3 483c 0a3b 1f3d 1da4 2dbc
000001a0: a8e0 fcbc 3489 3f3b 9dd2 a33c ff43 8fba
000001b0: 55f9 53bc 3282 583c 4e0b fdb9 6741 443c
000001c0: f014 bf3c b08c 713c 282a e2bc 4232 28bc
000001d0: 6e49 ba3c 2222 8b3c 324d 1f3b 7d0e 1b3d
000001e0: c9b7 ee3c 4d6c 8e3c f13f 023d 6f81 ebbc
000001f0: 8774 253b bc51 3e3c c3bc 63bc ab74 92bc
00000200: 657c 9e3c 19c2 f9bc 98b5 07bb 09db cd3c
00000210: 06e9 2fbb fc03 96bc c5a2 703c b26c 33bc
00000220: dc7d ca3a 1f49 01bd 4083 193c 2bee fdbc
00000230: 0c18 78bb 82c8 17bd 54c9 04bd 9317 013d
00000240: 3b9c 9ebc 85f3 aabb 2d8c 0a3b 46cb da3c
00000250: 7432 a03c a3ee ab3c c23c 50bc b76f 23bc
00000260: 6aeb b13c e10b de3b d86f 0a3c edd6 e5bc
00000270: 55be c5bc 9eda 303c 1f7a 0bbd 58b8 743c
00000280: 8ad1 0f3d bf7c 50bb 69da cebc f810 e73c
00000290: 8b59 bbbc 65d7 25bd 7b89 01bd 0f1b 143c
000002a0: edfc 113c 99e3 173d 90a3 c23c 2e55 a03c
000002b0: ec2f 893b dff0 093d 5904 bcbc 9199 23bc
000002c0: b7a5 db3c 4d36 0cbd 6021 c43c b9ae 243c
000002d0: 5842 d63c 2b09 17bc 8743 09bd 5a02 913c
000002e0: 2352 973c 20d1 b1bc 1c15 91bc eee6 c33b
000002f0: efb0 353c 8552 35bc 68d7 c5bc 4aa2 0f3d
00000300: 1e5b 96bc 09f3 0f3d e582 06bb 8008 123d
00000310: 9792 303c 5088 b63c af69 c43c 228c 8bbb
00000320: 2395 333d 9dbb 113c 501e 82bc a52d c13c
00000330: 3523 cabc cc43 b03c 57bc 97bb 9f3c ca3c
00000340: 20cb 88ba 7b74 2d3c c7f8 65bc d062 b33c
00000350: 6d1d c93c 89b8 97bc e487 163d 31b4 05bd
00000360: 9e40 63bc e16c 683c 4d78 153d 0253 e23b
00000370: 4b91 d8bb c656 003c a961 3bbc 23a6 8a3c
00000380: c7cb a0bb d8f8 bf3b 2933 1ebd ab63 8e3c
00000390: d5ef 063d d83e edbc fc40 6b3c 0a0d aabc
000003a0: 8c67 70bc 6399 1e3d 7e30 3bbd 68c0 92bb
000003b0: f5e9 d53b 77b8 a23c 9297 d2bc ad15 87bc
000003c0: 392b be3c 5267 58bd 1d33 813b 50e9 cbbc
000003d0: b33f 84ba 6b58 2e3d 0632 0dbd 733c 92bc
000003e0: 5e3c b9bc a7ed a73c c2e6 213d 7df0 d1bc
000003f0: 2a52 333d b75b 143c 94c0 fdbc b3d4 a43b

encoder.1.block.0.bias f4 [64]
-0.027281063 0.024968194 -0.029751694 0.032718226 -0.017498119 0.009004168 0.0073454753 0.027024537
0.014257941 -0.0023996346 0.025848968 -0.026182419 0.003064202 0.012146775 -0.04094891 -0.020480616
-0.007726604 -0.021098739 -0.003859964 -0.02327635 0.03512757 0.0002028789 0.02993235 0.0031269724
-0.008712293 0.007177032 -0.028844263 -0.024436714 0.018588627 -0.011088603 0.00036506337 0.0045774695
0.025571167 -0.0338703 -0.016705494 -0.01399781 0.001738261 0.03473059 0.023248114 -0.035019614
-0.0055518905 0.024836605 -0.023279164 0.012467232 0.01766381 0.02686876 0.023855234 0.019748645
0.01188485 -0.025902074 -0.016143521 -0.0060370937 -0.023220008 -0.010516261 -0.0033232702 -0.009056395
0.010341606 0.017306712 0.028791953 -0.030651027 0.028617535 0.0071299374 0.008070427 -0.012803856
00000000: 897c dfbc 198a cc3c d3b9 f3bc 8c03 063d
00000010: 3758 8fbc 3886 133c 50b2 f03b 9062 dd3c
00000020: 249a 693c 3043 1dbb 37c1 d33c 837c d6bc
00000030: c7d0 483b 4403 473c 0bba 27bd f7c6 a7bc
00000040: 742f fdbb 43d7 acbc 73f7 7cbb 0bae bebc
00000050: ede1 0f3d e4bb 5439 b034 f53c e4ed 4c3b
00000060: 01be 0ebc 4f2d eb3b ce4a ecbc 812f c8bc
00000070: 2d47 983c f9ac 35bc fa65 bf39 99fe 953b
00000080: a07a d13c 95bb 0abd f6d9 88bc 1257 65bc
00000090: 5cd6 e33a aa41 0e3d d472 be3c ba70 0fbd
000000a0: a2ec b5bb 2376 cb3c f2b3 bebc 5c43 4c3c
000000b0: b2b3 903c e01b dc3c 0d6c c33c e9c7 a13c
000000c0: adb8 423c 9630 d4bc 6b3f 84bc d0d2 c5bb
000000d0: e337 bebc 654c 2cbc 39cb 59bb 4661 14bc
000000e0: d76f 293c cec6 8d3c 1add eb3c dd17 fbbc
000000f0: 526f ea3c 40a2 e93b d339 043c 44c7 51bc

encoder.1.block.1.weight f4 [64]
1.0052075 0.9863596 0.9973313 1.0150026 0.99986494 0.9971369 0.99832934 1.0012665
1.0016991 0.99926096 0.9819598 0.9966599 0.98362046 0.99605113 0.99407715 1.0054626
0.983613 0.9958988 1.0037162 1.0008224 1.0250893 1.003279 0.99853665 0.9964607
0.99951625 0.99333984 1.0113747 0.9970221 1.0014204 0.992478 1.0019658 1.0017438
1.003033 1.0017297 0.9968783 1.013095 1.0028664 1.0306275 1.0022361 0.99588346
1.010353 0.9988118 0.9967395 1.0027808 1.015119 0.99611306 1.0170863 1.0086716
1.0055196 0.99786925 1.0098687 0.9977149 0.99175197 0.9946442 1.0022091 1.0124184
1.0047832 0.99437535 1.0044577 1.0144497 0.98310983 1.0024058 0.9975387 0.98396647
00000000: a4aa 803f 1082 7c3f 1b51 7f3f 9beb 813f
00000010: 26f7 7f3f 5d44 7f3f 8392 7f3f 8029 803f
00000020: ad37 803f 91cf 7f3f b861 7b3f 1a25 7f3f
00000030: 8dce 7b3f 35fd 7e3f d77b 7e3f 00b3 803f
00000040: 10ce 7b3f 39f3 7e3f c679 803f f31a 803f
00000050: 2036 833f 726b 803f 19a0 7f3f 0c18 7f3f
00000060: 4ce0 7f3f 854b 7e3f ba74 813f d73c 7f3f
00000070: 8b2e 803f 0a13 7e3f 6a40 803f 2439 803f
00000080: 6363 803f ae38 803f 6b33 7f3f 19ad 813f
00000090: ed5d 803f 9aeb 833f 4649 803f 38f2 7e3f
000000a0: 3f53 813f 21b2 7f3f 522a 7f3f 1f5b 803f
000000b0: 6bef 813f 4401 7f3f e22f 823f 271c 813f
000000c0: deb4 803f 5c74 7f3f 6143 813f 3e6a 7f3f
000000d0: 75e3 7d3f 01a1 7e3f 6348 803f ed96 813f
000000e0: bc9c 803f 628f 7e3f 1292 803f 7dd9 813f
000000f0: 16ad 7b3f d54e 803f b25e 7f3f 3ae5 7b3f

encoder.1.block.1.bias f4 [64]
0.0035753301 -0.0120145 0.010213494 0.0022285415 0.0013093792 0.010660352 -0.0132354135 -0.024547381
0.003322259 0.010433703 -0.025309661 -0.011680812 -0.004696201 0.0050518713 -0.0076378146 -0.0076762554
0.010836008 -0.0036284141 -0.007812946 0.005775201 0.006585806 -0.005247253 -0.0148748215 -0.010343087
-0.0031074742 -0.0025663155 0.0076595917 -0.015036304 -0.012334916 -0.0014566393 -0.010630693 -0.005054635
-0.010197885 -0.0017912462 -0.002380025 -0.002155348 -0.009344603 -0.00021999386 -0.005653025 -0.0005320297
0.0037879043 0.018467385 -0.0144831715 -0.005727827 0.018034905 0.0078079794 0.007399 0.010795937
0.005520732 0.0014397718 -0.0059494097 -0.005221114 -0.016067563 -0.017227625 -0.0012983856 -0.0032379958
0.00048413244 -0.0027739445 0.004170441 0.005810529 -0.016262442 0.00023956202 -0.0009778267 -0.0045007956
00000000: 1650 6a3b 77d8 44bc 8056 273c b90c 123b
00000010: 7a9f ab3a c2a8 2e3c 59d9 58bc 9717 c9bc
00000020: 42ba 593b 1ff2 2a3c 3556 cfbc e060 3fbc
00000030: 97e2 99bb 2b8a a53b a246 fabb 1989 fbbb
00000040: 8389 313c b0ca 6dbb df01 00bc e63d bd3b
00000050: bfcd d73b 26f1 abbb 86b5 73bc 0d76 29bc
00000060: c4a6 4bbb a12f 28bb 50fd fa3b d45a 76bc
00000070: 6318 4abc b4ec beba 5c2c 2ebc 5aa1 a5bb
00000080: 0815 27bc 40c8 eaba 32fa 1bbb bd40 0dbb
00000090: 1b1a 19bc 27ae 66b9 033d b9bb e977 0bba
000000a0: 7d3e 783b ea48 973c d34a 6dbc 7fb0 bbbb
000000b0: f0bd 933c 14da ff3b 5073 f23b 71e1 303c
000000c0: 42e7 b43b bab6 bc3a 44f3 c2bb e115 abbb
000000d0: 1fa0 83bc f320 8dbc 972e aaba 8e34 54bb
000000e0: 28d3 fd39 11cb 35bb 32a8 883b 4066 be3b
000000f0: d038 85bc f132 7b39 6b2a 80ba 697b 93bb

encoder.1.block.1.running_mean f4 [64]
0.14043812 -1.0599401 0.04626605 0.22155814 0.37146744 0.19560128 -0.016493425 -0.07428067
-0.25380668 -0.08186409 -0.3763134 -0.41228706 0.0055710454 -0.22545528 0.34722787 0.14386676
0.5225658 0.15347265 -0.42245486 0.13704662 0.23636279 0.27472243 -0.6489771 -0.59482616
0.16266428 0.30000135 -1.0212511 -0.029960426 0.020586539 0.606768 0.2814291 0.14246011
0.02237195 -0.5767133 0.04472398 0.06338582 -0.29608974 0.109694675 0.21715885 0.08143752
0.16074303 0.2708507 -0.066776596 -0.24560829 0.4025826 -0.6017343 0.22272311 0.7197672
0.10724596 -0.11738194 0.21690406 0.04993917 -0.20950757 -0.5608442 -0.056640152 0.1705514
-0.42191693 -0.51607496 0.4014637 -0.14242804 0.10930194 0.4604946 0.16928981 -0.29463172
00000000: 03cf 0f3e 1eac 87bf 7881 3d3d 23e0 623e
00000010: fb30 be3e b44b 483e 381d 87bc 7720 98bd
00000020: f3f2 81be 5ca8 a7bd 26ac c0be 4a17 d3be
00000030: 518d b63b c0dd 66be dac7 b13e cf51 133e
00000040: dfc6 053f ef27 1d3e 014c d8be f355 0c3e
00000050: 1609 723e 6ba8 8c3e 5d23 26bf 8746 18bf
00000060: 7791 263e c799 993e 5bb8 82bf 916f f5bc
00000070: 1aa5 a83c 2655 1b3f 7a17 903e 10e1 113e
00000080: 6145 b73c 7ca3 13bf 7e30 373d 6dd0 813d
00000090: 1399 97be 9aa7 e03d e45e 5e3e b7c8 a63d
000000a0: d299 243e f1ac 8a3e 2bc2 88bd bd80 7bbe
000000b0: 4e1f ce3e 420b 1abf 8711 643e aa42 383f
000000c0: c5a3 db3d f165 f0bd 191c 5e3e 048d 4c3d
000000d0: 2789 56be 7c93 0fbf 81ff 67bd 07a5 2e3e
000000e0: 7f05 d8be 7d1d 04bf a68c cd3e a8d8 11be
000000f0: b2d9 df3d f3c5 eb3e 4f5a 2d3e f8d9 96be

encoder.1.block.1.running_var f4 [64]
0.8288546 0.8662522 0.95560133 0.44639406 0.63464946 0.5051568 0.4893192 0.3984421
0.4287295 0.6749445 0.79338276 0.6666731 0.44907698 0.4801275 0.6887105 0.5024631
0.59703016 0.6806045 0.9564823 1.1347733 0.48114148 0.5439747 0.682971 0.88397664
0.38540748 0.40603417 1.0726656 0.40871727 0.5225987 0.8868885 0.63274163 0.34120154
0.61778384 0.6246542 0.5619867 0.58797383 0.5345631 1.1701802 0.2982458 0.5653639
0.51742697 0.6511742 0.6629359 0.3778106 0.48231813 0.8604647 0.63259554 1.1147442
0.5056272 0.6035739 0.78346354 0.8164391 0.4672555 0.42033577 0.4526554 0.6231405
0.4423728 0.7413201 0.63118297 0.8909151 1.1198616 1.0191237 0.72474325 1.0269879
00000000: d12f 543f b4c2 5d3f 4aa2 743f c38d e43e
00000010: 6378 223f f551 013f 0c88 fa3e 9a00 cc3e
00000020: 6f82 db3e 2ac9 2c3f 221b 4b3f 17ab 2a3f
00000030: 6bed e53e 46d3 f53e 554f 303f 6ca1 003f
00000040: f8d6 183f 193c 2e3f 06dc 743f 4040 913f
00000050: 2d58 f63e ed41 0b3f 30d7 2e3f 4b4c 623f
00000060: 2154 c53e b6e3 cf3e 1b4d 893f 6443 d13e
00000070: 07c9 053f 200b 633f 5bfb 213f f8b1 ae3e
00000080: 1527 1e3f 56e9 1f3f 5cde 0f3f 7485 163f
00000090: 21d9 083f 77c8 953f acb3 983e b0bb 103f
000000a0: 1876 043f 5ab3 263f 2bb6 293f 6470 c13e
000000b0: 67f2 f63e 6a47 5c3f c8f1 213f f0af 8e3f
000000c0: c970 013f d283 1a3f 1191 483f 2702 513f
000000d0: 1d3c ef3e 4036 d73e 73c2 e73e 2386 1f3f
000000e0: b07e e23e 27c7 3d3f 3595 213f 0313 643f
000000f0: a057 8f3f a572 823f c688 393f 5774 833f

encoder.2.0.convs.1.weight f4 [64, 64, 3, 3]
-0.014435554 0.010607789 -0.010577073 -0.041832298 0.0057512154 -0.03238801 -0.04296706 0.01507805
0.0016340156 -0.008938259 0.0153158605 -0.010085135 0.028981352 0.00863121 -0.009531662 0.033716783
0.021707628 0.028733194 -0.037090633 0.01942237 0.011414361 0.040772114 0.014052784 -0.0028130014
0.030633796 0.013909348 -0.03182745 -0.041885126 -0.021379814 -0.0015177131 0.013344043 0.02247109
-0.043503024 -0.011905412 -0.031101182 0.035966963 0.028808953 0.030839903 0.0028928476 -0.021159587
-0.036066674 0.0030899504 0.0015944885 -0.0071498286 0.034551065 -0.025129654 0.036729597 0.011242238
-0.04687281 -0.010395145 -0.02879081 -0.0067628613 0.023658799 0.028048005 -0.013813076 0.033162653
0.027467903 0.011108531 -0.03919781 -0.030619662 0.027759308 0.015288152 -0.017072804 -0.03164956
0.0010449712 -0.041144352 0.034170844 0.018930884 0.010445603 -0.032358065 -0.011514787 -0.015760556
0.032840535 0.03752004 0.022863785 -0.0063558524 0.044151537 -0.0053109494 -0.027317999 -0.038442258
0.009554668 0.0245095 0.027768869 0.016792895 0.026576396 -0.04074565 0.041869592 -0.017368546
-0.051594213 0.019101497 0.016880367 -0.0052221715 -0.039610114 -0.0050908807 -0.03492279 -0.022161692
0.030242795 0.018864237 -0.047808353 -0.02163765 -0.016065363 -0.041427087 -0.030982513 0.03149323
-0.0048851646 0.030312993 0.0032032996 0.02963508 -0.013637853 0.019996237 -0.015592197 0.019528009
0.022226475 0.028471153 -0.033827227 -0.008101682 0.0041487985 0.014764628 -0.02980549 0.024174646
-0.03671881 -0.007930017 -0.028705837 -0.012424969 -0.03089288 0.022008792 -0.007025363 0.022073925
0.0006521722 0.00030732783 0.036953114 0.013358777 0.037826452 -0.035617597 0.031629894 0.009229635
-0.0011960976 0.023487322 -0.043700654 0.026468573 -0.02758603 0.0243085 -0.005531701 -0.02662829
0.0268505 0.009988085 -0.024794392 0.0011907559 -0.023772014 -0.042264365 0.0006367954 -0.018483251
-0.010721349 0.04174795 -0.0007582222 -0.016769422 0.029739818 -0.032066837 0.0085839825 0.005048465
0.040102195 -0.0475681 -0.008315161 0.0112446975 -0.0072552105 -0.039339945 0.00532404 0.016409757
0.006776326 0.028650954 -0.027344704 0.026181186 0.02399557 -0.014182714 -0.023791239 -0.01707079
-0.040032018 -0.010750177 -0.044349276 0.038888205 0.032795325 0.0018159694 -0.011096259 -0.029633516
0.032734577 -0.0011542463 -0.0013523943 -0.03287558 -0.002417981 -0.032129206 -0.004086537 0.01984537
0.025091479 -0.04136239 0.0040571317 0.014441365 -0.004007445 0.013079611 -0.034029353 -0.01568168
-0.0066264938 -0.018981317 0.02476149 -0.023661224 -0.040966026 -0.0244206 0.0024571721 0.016607955
0.048825596 -0.020961 0.025264282 0.026436824 -0.013063043 -0.009128988 -0.026431313 -7.5210744e-05
-0.0008071556 -0.032498315 0.030823637 -0.057779435 -0.014637854 0.004224048 0.029390858 -0.007072192
0.021671623 -0.022223432 0.013616525 -0.018973637 -0.03139329 0.027805207 0.021190403 0.03205988
-0.019598672 0.0027954937 0.04423335 0.04503915 0.024445608 0.0046508503 0.026537353 0.050401647
-0.0048209545 -0.0012403028 0.0026241622 -0.01624481 -0.028332293 -0.028662732 -0.016664648 0.019001558
-0.032923356 -0.041168164 -0.012005279 0.016896283 0.01204114 -0.06774104 -0.018708985 -0.025577584
00000000: 1a83 6cbc 4bcc 2d3c 764b 2dbc 5858 2bbd
00000010: b174 bc3b 4aa9 04bd 3afe 2fbd ed09 773c
00000020: 772c d63a c771 12bc 60ef 7a3c 1f3c 25bc
00000030: 4d6a ed3c eb69 0d3c b02a 1cbc 9c1a 0a3d
00000040: 32d4 b13c e061 eb3c 59ec 17bd a91b 9f3c
00000050: 4d03 3b3c a900 273d a63d 663c 555a 38bb
00000060: baf3 fa3c 09e4 633c 805d 02bd bd8f 2bbd
00000070: b824 afbc 00ee c6ba f9a0 5a3c 4b15 b83c
00000080: 3a30 32bd eb0e 43bc e8c7 febc 1852 133d
00000090: c100 ec3c f7a3 fc3c ee95 3d3b df56 adbc
000000a0: a6ba 13bd c480 4a3b 28fe d03a 1c49 eabb
000000b0: 6b85 0d3d b4dc cdbc c671 163d 5d31 383c
000000c0: b4fd 3fbd 6650 2abc b4da ebbc fe9a ddbb
000000d0: 19d0 c13c eec4 e53c 3d50 62bc 90d5 073d
000000e0: 5e04 e13c 8e00 363c e28d 20bd 16d6 fabc
000000f0: 7d67 e33c 287b 7a3c 44dc 8bbc f8a2 01bd
00000100: 6af7 883a fb86 28bd baf6 0b3d f114 9b3c
00000110: 0924 2b3c e489 04bd 84a8 3cbc 481c 81bc
00000120: cc83 063d 9dae 193d d54c bb3c c144 d0bb
00000130: 3ed8 343d 7907 aebb ffc9 dfbc a175 1dbd
00000140: 2f8b 1c3c 26c8 c83c 8a7b e33c 4191 893c
00000150: beb6 d93c e9e4 26bd 737f 2b3d 7b48 8ebc
00000160: 7454 53bd be7a 9c3c b248 8a3c c01e abbb
00000170: 373e 22bd 67d1 a6bb 330b 0fbd 708c b5bc
00000180: bdbf f73c 2c89 9a3c b1d2 43bd 7141 b1bc
00000190: 829b 83bc 73af 29bd 0acf fdbc 0cff 003d
000001a0: bb13 a0bb f452 f83c 73ee 513b 44c5 f23c
000001b0: 4d71 5fbc 26cf a33c 6a76 7fbc 34f9 9f3c
000001c0: 4c14 b63c 563c e93c 6b8e 0abd ebbc 04bc
000001d0: a5f2 873b 57e7 713c a52a f4bc e809 c63c
000001e0: 7766 16bd e7ec 01bc 8128 ebbc 1992 4bbc
000001f0: 1113 fdbc c84b b43c 0435 e6bb 60d4 b43c
00000200: 89f6 2a3a d820 a139 265c 173d c6de 5a3c
00000210: e9ef 1a3d c2e3 11bd 598e 013d e537 173c
00000220: 60c6 9cba 7c68 c03c 75ff 32bd 9fd4 d83c
00000230: 19fc e1bc 9f22 c73c 4543 b5bb 9223 dabc
00000240: 94f5 db3c 11a5 233c 9c1d cbbc 2313 9c3a
00000250: 87bd c2bc 661d 2dbd 9eee 263a 306a 97bc
00000260: 99a8 2fbc e6ff 2a3d 6ec3 46ba 0760 89bc
00000270: eba0 f33c 8458 03bd d5a3 0c3c 986d a53b
00000280: 3342 243d c5d6 42bd 503c 08bc ae3b 383c
00000290: 1ebd edbb ec22 21bd 4975 ae3b c16d 863c
000002a0: f10b de3b 68b5 ea3c 0002 e0bc ed79 d63c
000002b0: 5c92 c43c 9d5e 68bc d8e5 c2bc 0bd8 8bbc
000002c0: 9df8 23bd 8321 30bc 96a7 35bd 3d49 1f3d
000002d0: 6454 063d d205 ee3a 15cd 35bc fdc1 f2bc
000002e0: b114 063d 144a 97ba d342 b1ba 8ba8 06bd
000002f0: fd76 1ebb ea99 03bd 5be8 85bb c292 a23c
00000300: a58c cd3c 9c6b 29bd b0f1 843b 7a9b 6c3c
00000310: e350 83bb dd4b 563c 5d62 0bbd de76 80bc
00000320: 0f23 d9bb b57e 9bbc 9cd8 ca3c 2fd5 c1bc
00000330: fecb 27bd b60d c8bc 8208 213b 680d 883c
00000340: 59fd 473d 67b6 abbc 0af7 ce3c 0a92 d83c
00000350: 6006 56bc c091 15bc 7b86 d8bc 76ba 9db8
00000360: 4c97 53ba f41c 05bd da81 fc3c 21aa 6cbd
00000370: 9cd3 6fbc e269 8a3b 19c5 f03c d9bd e7bb
00000380: b088 b13c ea0d b6bc d817 5f3c 9a6e 9bbc
00000390: 4096 00bd bfc7 e33c 7f97 ad3c 3951 033d
000003a0: 658d a0bc 9a34 373b 072e 353d f97a 383d
000003b0: 2842 c83c 2966 983b dd64 d93c f571 4e3d
000003c0: 19f9 9dbb a891 a2ba 23fa 2b3b d613 85bc
000003d0: 2019 e8bc 1bce eabc 4d84 88bc 28a9 9b3c
000003e0: a4da 06bd f39f 28bd cab1 44bc 136a 8a3c
000003f0: 3448 453c d0bb 8abd 9643 99bc 1588 d1bc

encoder.2.0.convs.1.bias f4 [64]
0.0043775155 -0.03997899 0.036501385 0.042913634 0.03704934 0.03328953 0.00062708615 -0.019387556
0.03282365 0.017171364 -0.03744044 0.03940818 0.015321353 0.011626654 -0.018453572 0.018035877
-0.022826197 0.032013748 -0.009194362 -0.017358737 -0.00014222972 0.01377539 0.010286884 0.004290003
-0.02439576 -0.0389737 -0.0053992546 0.0043194233 -0.030909508 0.0055398988 0.033196557 0.0069606947
0.040983453 0.026335053 -0.012804886 -0.014589725 0.0067423093 -0.03317359 0.0040224115 0.023232808
-0.011168803 0.010259217 -0.013534911 0.020730952 0.030806487 0.034812156 0.021048548 -0.030618321
0.0016720301 -0.0135220345 0.022889374 -0.009607223 0.018337432 -0.010527247 -0.040368713 0.038211945
-0.0016958212 -0.015828429 -0.018069895 -0.028701477 0.027655734 0.022137139 0.034514725 0.00419022
00000000: 4371 8f3b 02c1 23bd 7a82 153d 35c6 2f3d
00000010: 0cc1 173d 9a5a 083d 0a63 243a a7d2 9ebc
00000020: 1772 063d f6aa 8c3c 265b 19bd 796a 213d
00000030: 6a06 7b3c b97d 3e3c f22b 97bc fabf 933c
00000040: 01fe babc d920 033d f3a3 16bc e933 8ebc
00000050: 8023 15b9 2cb2 613c 528a 283c 2793 8c3b
00000060: 9ed9 c7bc e3a2 1fbd 3bec b0bb f389 8d3b
00000070: f035 fdbc 0a88 b53b 1df9 073d 8a16 e43b
00000080: 44de 273d 9cbc d73c 96cb 51bc be09 6fbc
00000090: 97ee dc3b 08e1 07bd 6fce 833b bb52 be3c
000000a0: 5bfd 36bc 4616 283c 88c1 5dbc f5d3 a93c
000000b0: e35d fc3c 3197 0e3d 016e ac3c 46d3 fabc
000000c0: 0528 db3a 868b 5dbc 7f82 bb3c 9d67 1dbc
000000d0: 6238 963c 797a 2cbc aa59 25bd 2184 1c3d
000000e0: 5146 deba 9faa 81bc 5107 94bc 5c1f ebbc
000000f0: 478e e23c f258 b53c 505f 0d3d 1d4e 893b

encoder.2.0.convs.2.weight f4 [64]
0.97943836 0.997344 0.992407 1.0123878 1.0018727 0.9969561 0.99096847 1.0051308
0.99602884 0.9978333 0.99761134 0.99633026 0.9897558 0.98561585 1.0015701 0.98940015
0.9844948 0.99995947 0.98597634 0.99705267 0.9988405 1.002365 1.0164775 1.0066125
0.9903681 0.9961585 1.0017874 0.98394126 0.9906444 0.9978668 0.98536426 1.0082841
0.9933293 0.9935428 1.0040132 1.020554 0.99916255 0.9819193 0.9978522 0.99754477
0.9900263 0.9963704 1.0092 1.0070523 0.99636155 0.99843705 0.99694884 0.9933136
0.9991055 1.0148641 0.988759 0.9995914 0.9950314 0.9982775 0.9968484 0.998521
0.99713814 0.9968651 0.99398136 1.0051484 0.98290694 0.9847393 1.0055275 0.99209535
00000000: 79bc 7a3f f051 7f3f 630e 7e3f ec95 813f
00000010: 5d3d 803f 8438 7f3f 1cb0 7d3f 20a8 803f
00000020: bffb 7e3f 0172 7f3f 7563 7f3f 800f 7f3f
00000030: a360 7d3f 5251 7c3f 7333 803f 5449 7d3f
00000040: da07 7c3f 58fd 7f3f f268 7c3f d83e 7f3f
00000050: 03b4 7f3f 7f4d 803f ef1b 823f aed8 803f
00000060: c488 7d3f 3e04 7f3f 923a 803f 93e3 7b3f
00000070: df9a 7d3f 3374 7f3f d540 7c3f 740f 813f
00000080: d44a 7e3f d258 7e3f 8183 803f 83a1 823f
00000090: 1ec9 7f3f 105f 7b3f 3e73 7f3f 185f 7f3f
000000a0: 5d72 7d3f 2112 7f3f 772d 813f 17e7 803f
000000b0: 8d11 7f3f 9299 7f3f 0a38 7f3f cd49 7e3f
000000c0: 61c5 7f3f 11e7 813f 4f1f 7d3f 39e5 7f3f
000000d0: 61ba 7e3f 1d8f 7f3f 7531 7f3f 129f 7f3f
000000e0: 7244 7f3f 8d32 7f3f 9075 7e3f b4a8 803f
000000f0: ca9f 7b3f e017 7c3f 20b5 803f f6f9 7d3f

encoder.2.0.convs.2.bias f4 [64]
-0.013019976 -0.0035638688 -0.00074427336 0.009527252 -0.0027742654 0.0019196075 -0.012966393 0.0065500597
-0.014176584 -0.012441629 -0.0041384036 -0.0036777998 0.0011014452 -0.0093928045 0.0017737848 0.00023092255
-0.009339399 0.001382922 0.00074551115 0.0012289773 -0.006862386 0.012690958 0.0054117483 -0.0036714424
-0.011985757 0.0063583255 0.017628478 0.0018627216 0.0055993595 0.003406845 -0.0076914974 0.0057586404
-0.009881206 0.0017197282 0.006579776 0.022245243 0.00083834527 -0.009514646 -0.010551365 -0.0046190284
-0.001420005 -0.0058125257 -0.0031491355 0.0088589825 -0.024342664 -0.006968516 0.0012355519 -0.008786061
0.0016915341 0.009829594 -0.0011693321 0.0020165779 0.0020476112 -0.018862285 0.0010724867 -0.008762101
0.0070138588 0.0010658522 -0.0007242859 0.0028300849 -0.012904625 -0.010087318 0.0040621744 -0.014757348
00000000: bd51 55bc cc8f 69bb 571b 43ba 3118 1c3c
00000010: 73d0 35bb 579b fb3a fe70 54bc e2a1 d63b
00000020: e744 68bc f9d7 4bbc 729b 87bb 3e07 71bb
00000030: 5e5e 903a 47e4 19bc 577e e83a cd23 7239
00000040: 4704 19bc 2a43 b53a 686e 433a a315 a13a
00000050: dedd e0bb bced 4f3c 0955 b13b 959c 70bb
00000060: e95f 44bc 8059 d03b 9969 903c 9126 f43a
00000070: d57a b73b 6045 5f3b f508 fcbb fab2 bc3b
00000080: c8e4 21bc 8168 e13a 299b d73b a83b b63c
00000090: 66c4 5b3a 51e3 1bbc a2df 2cbc 385b 97bb
000000a0: 761f baba 0077 bebb ba61 4ebb 4425 113c
000000b0: 446a c7bc 2658 e4bb 3ef2 a13a 69f3 0fbc
000000c0: 77b6 dd3a 4e0c 213c 4644 99ba 9028 043b
000000d0: 3731 063b 1485 9abc af92 8c3a ea8e 0fbc
000000e0: 83d4 e53b 11b4 8b3a 01de 3dba f278 393b
000000f0: ec6d 53bc 4745 25bc fd1b 853b cec8 71bc

encoder.2.0.convs.2.running_mean f4 [64]
-0.14985435 -0.23710251 0.34294266 0.21849872 0.09347687 0.19935916 0.35588238 0.28504696
0.25850675 -0.12235808 0.35119218 0.16595536 0.098444976 -0.64458424 0.4078736 -0.46394196
-0.14960128 -0.1698762 -0.17435618 0.13085973 -0.1595185 -0.4201433 0.10700618 0.27208126
-0.3270928 -0.50049585 0.2120802 -0.1954793 0.2271393 -0.008581132 -0.3181018 0.10843091
0.23645586 0.04494521 0.091717534 0.05734224 -0.25360832 -0.36653647 0.17380637 0.37661883
-0.1846586 0.12455856 -0.2647628 0.028285515 -0.037609223 -0.01635924 -0.3328719 0.08962707
0.10852936 0.056874156 -0.33483228 -0.014129392 -0.24086547 0.10193042 -0.23941605 0.3901808
0.0617056 -0.045235507 0.3347789 0.13438985 0.04008201 -0.3429463 0.052222215 -0.051097807
00000000: 6b73 19be 00cb 72be 2e96 af3e 21be 5f3e
00000010: cd70 bf3d cf24 4c3e 3736 b63e adf1 913e
00000020: ff5a 843e e096 fabd 76cf b33e 34f0 293e
00000030: 859d c93d 7903 25bf cfd4 d03e cd89 edbe
00000040: 1431 19be 07f4 2dbe 6d8a 32be 1800 063e
00000050: d158 23be 061d d7be 0e26 db3d 3c4e 8b3e
00000060: b578 a7be 7f20 00bf 8d2b 593e ba2b 48be
00000070: 3497 683e e097 0cbc 3dde a2be 0611 de3d
00000080: 7c21 723e 7818 383d 67d6 bb3d b2df 6a3d
00000090: f3d8 81be abaa bbbe 4cfa 313e 2fd4 c03e
000000a0: 2517 3dbe 8f18 ff3d fd8e 87be 06b7 e73c
000000b0: 210c 1abd d003 86bc 306e aabe 668e b73d
000000c0: a444 de3d e0f4 683d 236f abbe f77e 67bc
000000d0: 70a5 76be e5c0 d03d 7b29 75be c7c5 c73e
000000e0: 03bf 7c3d de48 39bd 2468 ab3e 7e9d 093e
000000f0: 092d 243d a896 afbe f6e6 553d ef4b 51bd

encoder.2.0.convs.2.running_var f4 [64]
0.350945 0.37908208 0.5453293 0.8328088 0.53247106 0.2931729 0.5746626 0.4260709
0.3957787 0.25137967 0.3530843 0.30938312 0.24145152 0.84643316 0.50573224 0.5493107
0.62857586 0.22416928 0.38780788 0.34336522 0.2541767 0.4784849 0.5763739 0.32869378
0.565209 0.27885273 0.48157367 0.5682596 0.37573478 0.3138792 0.7112542 0.37818986
0.26777014 0.3041378 0.30873248 0.18907663 0.39030313 0.6223206 0.22826454 0.4773724
0.41503948 0.36860543 0.56285346 0.29832882 0.2749874 0.36146006 0.24956249 0.35986534
0.36180213 0.31081915 0.4933877 0.45429328 0.48509997 0.31390008 0.39070487 0.37851822
0.26247925 0.47805238 0.34437764 0.4609822 0.27261108 0.40427336 0.20294322 0.36200637
00000000: 10af b33e 0c17 c23e b39a 0b3f f532 553f
00000010: 0650 083f c21a 963e 171d 133f f725 da3e
00000020: 81a3 ca3e d6b4 803e 77c7 b43e 7767 9e3e
00000030: 113f 773e d8af 583f ab77 013f a09f 0c3f
00000040: 59ea 203f a28c 653e c18e c63e 91cd af3e
00000050: 7323 823e f9fb f43e 3d8d 133f 8d4a a83e
00000060: 89b1 103f c9c5 8e3e d390 f63e 7679 113f
00000070: 4f60 c03e c6b4 a03e c114 363f 1aa2 c13e
00000080: 2b19 893e f3b7 9b3e 2f12 9e3e 4e9d 413e
00000090: d0d5 c73e 6750 1f3f 2ebe 693e 286a f43e
000000a0: 0e80 d43e dab9 bc3e 2a17 103f 8ebe 983e
000000b0: 26cb 8c3e 4b11 b93e 4f8d 7f3e 4540 b83e
000000c0: 213e b93e b023 9f3e 509d fc3e 2199 e83e
000000d0: 065f f83e 83b7 a03e 780a c83e 24cd c13e
000000e0: ae63 863e 48c3 f43e 4452 b03e dc05 ec3e
000000f0: ae93 8b3e ebfc ce3e 59d0 4f3e e658 b93e

encoder.2.0.convs.5.weight f4 [64, 64, 1, 1]
-0.06740286 0.069991685 0.0754536 0.06278048 -0.009327655 -0.10912656 -0.02290191 -0.02029174
0.062629305 0.06511321 0.10712429 0.079550296 0.07442302 0.022667928 -0.079059705 0.05515237
0.11788445 0.077280246 -0.029852966 0.048276648 0.059550826 0.068343766 0.099455066 0.043087333
0.010377582 -0.053549595 0.036888488 -0.06465159 0.05951002 -0.03983071 -0.017935786 -0.05333278
-0.0752783 0.039324943 -0.077136666 -0.04970947 0.0015912502 -0.077875085 -0.015400563 -0.09162652
-0.02706739 0.03958362 -0.0037730173 -0.048461985 0.04472402 0.07440373 -0.0564642 0.057802975
-0.106213994 0.103352964 0.019641567 -0.08316544 -0.076275945 0.073759906 0.08307564 -0.02582118
-0.017488403 -0.11274453 -0.10893758 -0.12587762 -0.11714882 -0.070742495 -0.038065676 -0.0114575
0.05329151 0.12092012 0.07109231 -0.044564098 0.027841896 0.037843183 0.016931543 -0.052708887
0.070768386 -0.076340646 0.076097205 -0.09019677 0.10283148 0.032316085 -0.111555964 0.095022514
0.029116035 0.074367374 -0.0979018 -0.069817945 0.044665158 -0.07683378 -0.1004221 -0.092012994
-0.034141485 0.09136862 -0.0730757 0.06866668 -0.0990471 -0.077713676 -0.04095986 -0.09103187
-0.050764855 -0.058917444 0.0038068842 -0.012681279 -0.106924534 0.031177504 -0.122644596 0.115937054
0.071118556 -0.08420755 -0.013283819 -0.065193854 0.0024627144 -0.12239376 -0.03968039 -0.007122987
0.06062828 0.021404056 -0.060628135 0.021722509 0.113216095 -0.063774586 -0.11267196 -0.117497005
0.086819224 0.08170237 0.04879399 0.0077601434 -0.100639515 0.056666702 -0.04078621 0.04549173
0.024918256 -0.103670254 0.05999362 0.032321565 0.12108415 -0.015733602 -0.09990358 0.00419331
-0.07446077 0.03171255 0.06565373 0.12162716 -0.0072749755 -0.12236254 -0.13553067 -0.0701958
-0.10556021 0.080707766 -0.014213218 -0.10281076 -0.08203007 -0.0372711 0.020778226 0.048717067
0.027020438 0.1119155 -0.02685253 0.0843057 -0.11976623 -0.09909409 -0.021078289 0.026097488
0.12186786 0.011669448 0.024978427 -0.13501862 0.015010588 -0.005702667 0.1119304 -0.072159275
0.109898075 -0.073059365 0.044118337 -0.09719324 0.006651895 0.07804568 -0.0028231274 -0.014195711
-0.09751112 -0.034634385 0.10416676 -0.101783045 -0.046941463 0.038967434 -0.017978825 0.04744367
-0.12678072 0.1263033 0.069192894 0.05696369 -0.103707924 -0.0728538 0.03947065 0.10687802
0.03825071 0.09444809 -0.08270309 0.0029905078 0.1029546 0.018094387 0.063865304 9.00507e-05
-0.094128706 -0.05684584 -0.06761299 -0.0328372 0.016333926 -0.02386579 -0.102755584 -0.03292616
-0.028856216 0.019573513 0.085069 -0.041175645 -0.014193675 0.014558579 0.107435755 0.047159165
0.013409161 -0.015984962 0.119636744 0.059951514 0.050774675 0.0925047 0.08811663 0.056672975
0.09690796 -0.020674136 0.019382453 -0.006024753 -0.058425836 -0.093505576 -0.012165597 0.075762205
0.057538155 -0.11307905 0.093699254 0.017832091 0.08712497 -0.09361621 -0.06022538 -0.08233466
0.0018305407 0.063909724 -0.11388479 0.03814595 -0.096767455 -0.11327439 0.052515313 0.06114407
-0.04785252 -0.074493974 0.013857799 -0.041274995 0.11395388 -0.11105713 -0.087967984 -0.06662354
00000000: 830a 8abd cd57 8f3d 6b87 9a3d 0d93 803d
00000010: 05d3 18bc bf7d dfbd c99c bbbc dd3a a6bc
00000020: cb43 803d 135a 853d fb63 db3d 44eb a23d
00000030: 196b 983d 17b2 b93c 0eea a1bd 74e7 613d
00000040: 676d f13d 1b45 9e3d 358e f4bc bcbd 453d
00000050: 91eb 733d d1f7 8b3d 19af cb3d 587c 303d
00000060: bc06 2a3c d256 5bbd 6218 173d 0e68 84bd
00000070: c7c0 733d 8725 23bd 12ee 92bc 7973 5abd
00000080: 822b 9abd 3113 213d d4f9 9dbd 289c 4bbd
00000090: 7f91 d03a f97c 9fbd a552 7cbc afa6 bbbd
000000a0: 6ebc ddbc 6f22 223d ba44 77bb 1380 46bd
000000b0: 8930 373d fc60 983d 0147 67bd d0c2 6c3d
000000c0: b986 d9bd b8aa d33d 5ae7 a03c a452 aabd
000000d0: 9036 9cbd 6f0f 973d 9023 aa3d f086 d3bc
000000e0: d743 8fbc 9be6 e6bd aa1a dfbd 10e6 00be
000000f0: b8eb efbd 71e1 90bd c1ea 1bbd 3db8 3bbc
00000100: 3348 5a3d f8a4 f73d d898 913d d888 36bd
00000110: b014 e43c 7401 1b3d 05b4 8a3c 46e5 57bd
00000120: 04ef 903d 7c58 9cbd dad8 9b3d 16b9 b8bd
00000130: 5099 d23d df5d 043d 7477 e4bd 2a9b c23d
00000140: c084 ee3c ec4d 983d bd80 c8bd b6fc 8ebd
00000150: d0f2 363d 075b 9dbd 1aaa cdbd 4f71 bcbd
00000160: f1d7 0bbd 791f bb3d b6a8 95bd 1ea1 8c3d
00000170: 35d9 cabd 5928 9fbd 87c5 27bd eb6e babd
00000180: cfee 4fbd 6b53 71bd eb7c 793b 24c5 4fbc
00000190: 40fb dabd f767 ff3c 172d fbbd 6870 ed3d
000001a0: 9ba6 913d 0275 acbd 60a4 59bc 5b84 85bd
000001b0: 7e65 213b 94a9 fabd e887 22bd f267 e9bb
000001c0: 5c55 783d 8f57 af3c 3555 78bd 67f3 b13c
000001d0: d7dd e73d 409c 82bd 8ec0 e6bd 45a2 f0bd
000001e0: 47ce b13d 9253 a73d 35dc 473d cd48 fe3b
000001f0: 171c cebd 581b 683d 710f 27bd 8955 3a3d
00000200: 5f21 cc3c 1251 d4bd dfbb 753d 9e63 043d
00000210: f8fa f73d c1e3 80bc 409a ccbd 0968 893b
00000220: e37e 98bd 05e5 013d 7675 863d a917 f93d
00000230: eb62 eebb 3699 fabd 8dc8 0abe d1c2 8fbd
00000240: f42f d8bd 1d4a a53d 8fde 68bc 738e d2bd
00000250: 62ff a7bd 95a9 18bd 1937 aa3c 8c8b 473d
00000260: f759 dd3c f433 e53d d6f9 dbbc 78a8 ac3d
00000270: ff47 f5bd d8f1 cabd 60ac acbc 66ca d53c
00000280: db95 f93d 3631 3f3c 8f9f cc3c 5242 0abe
00000290: f8ee 753c 70dd babb c43b e53d 3ec8 93bd
000002a0: 3e12 e13d 26a0 95bd 6eb5 343d 400d c7bd
000002b0: 24f8 d93b 6ad6 9f3d 3804 39bb 2195 68bc
000002c0: e9b3 c7bd c9dc 0dbd 6255 d53d a173 d0bd
000002d0: b145 40bd 519c 1f3d 5448 93bc 4b54 423d
000002e0: ced2 01be a755 013e 01b5 8d3d c252 693d
000002f0: d264 d4bd 6034 95bd faab 213d dde2 da3d
00000300: c7ac 1c3d 006e c13d 3d60 a9bd 65fc 433b
00000310: dcd9 d23d ae3a 943c d0cb 823d 9ad9 bc38
00000320: 8dc6 c0bd 2fd7 68bd ae78 8abd 4d80 06bd
00000330: bace 853c 3082 c3bc 8571 d2bd 95dd 06bd
00000340: df63 ecbc a258 a03c a838 ae3d cba7 28bd
00000350: 968c 68bc 1b87 6e3c 4707 dc3d f829 413d
00000360: 19b2 5b3c e5f2 82bc 1c04 f53d b88f 753d
00000370: 1bf9 4f3d 1b73 bd3d 7e76 b43d ec21 683d
00000380: ae77 c63d ce5c a9bc f3c7 9e3c 4b6b c5bb
00000390: ee4f 6fbd da7f bfbd 3652 47bc 3729 9b3d
000003a0: 21ad 6b3d fd95 e7bd 65e5 bf3d 9b14 923c
000003b0: 946e b23d dbb9 bfbd e3ae 76bd 139f a8bd
000003c0: c1ee ef3a 1ae3 823d 6e3c e9bd ed3e 1c3d
000003d0: 042e c6bd 67fc e7bd 4c1a 573d 3472 7a3d
000003e0: 0101 44bd 4c90 98bd d20b 633c f80f 29bd
000003f0: a760 e93d ec71 e3bd 8f28 b4bd ec71 88bd

encoder.2.0.convs.5.bias f4 [64]
0.12243354 0.10328047 0.088253245 0.06941282 -0.08081949 0.019713247 -0.09141273 0.11668204
0.04178726 0.03212032 -0.052569523 0.0876606 -0.017703885 0.10699743 -0.049550444 0.07414995
0.016876254 -0.022719655 -0.030899206 -0.008022512 -0.106978714 -0.013936181 0.0763546 0.0331601
-0.026057845 0.023147918 -0.08430051 0.104929805 -0.014573835 -0.045832653 -0.016871879 0.10881451
0.058418073 0.05480177 -0.12390693 0.08498342 -0.022684425 -0.10361118 0.0762565 0.09267395
-0.005836044 -0.10624351 0.03708623 -0.090744026 -0.06501106 -0.044985127 0.05040254 -0.02780035
-0.07960944 0.03603884 -0.07685282 0.09918633 0.11870037 -0.035008207 0.053608276 0.028376158
0.005789841 0.114403695 -0.05584339 0.110525325 -0.07900253 -0.00017514748 -0.09523733 -0.075313605
00000000: 70be fa3d b684 d33d 1ebe b43d 4f28 8e3d
00000010: b084 a5bd ad7d a13c 9936 bbbd fef6 ee3d
00000020: 1e29 2b3d 9990 033d 2453 57bd 6787 b33d
00000030: bd07 91bc 7821 db3d 68f5 4abd eedb 973d
00000040: 1240 8a3c 921e babc 5520 fdbc db70 03bc
00000050: a817 dbbd 9454 64bc cd5f 9c3d e3d2 073d
00000060: 4377 d5bc b4a0 bd3c bfa5 acbd 70e5 d63d
00000070: 18c7 6ebc 05bb 3bbd e536 8abc 24da de3d
00000080: ca47 6f3d d277 603d ebc2 fdbd ca0b ae3d
00000090: b0d4 b9bc 1932 d4bd 5e2c 9c3d d7cb bd3d
000000a0: 493c bfbb 3396 d9bd bbe7 173d 01d8 b9bd
000000b0: 8524 85bd 5342 38bd e572 4e3d 8fbd e3bc
000000c0: 460a a3bd 769d 133d 0365 9dbd 3422 cb3d
000000d0: 2e19 f33d c464 0fbd 5a94 5b3d 1e75 e83c
000000e0: b5b8 bd3b 7c4c ea3d 0abc 64bd 1a5b e23d
000000f0: 14cc a1bd cba7 37b9 ca0b c3bd 053e 9abd
