saved_models/decoder-ElectricDevices.ckpt (torch, 883014 bytes, 41 tensors)

decoder.0.0.convs.1.weight f4 [64, 64, 3, 3]
0.011880633 -0.061294932 0.020803139 0.010913931 0.03814233 -0.032192513 0.0038492659 0.049054157
-0.056204244 -0.042137876 0.07703868 -0.16772042 -0.27828526 -0.08960939 0.009632369 -0.00023603647
0.13601007 -0.041317012 -0.04247016 -0.010291975 -0.06810464 0.12540463 0.15168056 -0.17411318
-0.0053611584 0.012862264 -0.7467303 0.058965955 -0.22563967 -0.037037108 -0.020241583 -0.023806429
0.04577449 -0.07413863 0.007339142 -0.07949887 -0.0134533 0.07731075 -0.21042627 -0.03658692
0.053687155 -0.012948771 0.052104134 0.15116256 -0.027377535 0.0011271201 0.0044232765 0.060585886
-0.009364383 -0.054103713 -0.08034454 0.14466283 -0.052239835 -0.1055164 0.055856276 -0.03742759
0.009118959 -0.0068331067 0.027374482 -0.08788901 -0.03340192 -0.1271555 -0.12764671 0.0100006545
0.02669523 -0.011031562 0.0378098 0.013918552 -0.09421168 -0.0005557992 0.079346076 -0.027178902
0.044957235 0.18026808 -0.07197552 -0.11434243 0.0392616 0.10121721 -0.06584446 0.16540208
0.0017259172 0.10065634 -0.07679878 -0.060602415 0.096686676 -0.012272782 -0.32697928 -0.03357216
-0.022783099 -0.028636802 0.20081477 -0.3676735 0.08625855 0.021785768 -0.13483782 -0.0951773
-0.03668458 -0.18535668 0.4399526 0.011205765 -0.020869475 -0.17698821 0.018281717 0.07078804
-0.14962165 0.014947995 0.030601645 0.046200644 -0.06389814 0.10262323 -0.162725 0.020929156
0.115387194 0.11409471 0.015699757 -0.08405981 -0.45064372 -0.0052511557 0.006861924 0.010226014
0.021138832 -0.05766803 -0.10978049 0.065103106 0.04868851 -0.26965058 -0.046094183 -0.12503949
0.05640545 -0.058257528 0.042895377 0.05690433 -0.102075614 -0.03285936 -0.105490565 -0.022333996
0.16747533 0.051219296 0.076173574 -0.35078725 -0.06317392 0.081262805 0.17703883 0.046233196
-0.10999875 0.07380221 0.08134353 -0.05564594 0.030716088 -0.04478211 -0.014223141 0.04272693
-0.026060203 -0.038155988 0.19088183 -0.19810839 -0.07350341 -0.008756169 -0.19992179 0.026530571
0.21142626 0.091674484 -0.025633998 -0.11387927 -0.2508506 0.15061706 0.109940894 0.099243194
0.07840464 -0.082479425 0.48964807 -0.0016521428 -0.13140738 -0.09477587 -0.024936838 -0.1866021
-0.1518617 0.057337403 -0.0396284 -0.05470724 -0.018343152 -0.015281335 0.013908835 -0.016125474
-0.15572052 -0.3199888 -0.06695467 0.06787873 0.07933267 0.05770422 -0.31692764 0.06802096
-0.030624645 -0.05131715 -0.04257597 -0.014902637 -0.08679727 0.23107737 0.00034548793 0.053474862
-0.11942013 0.038386498 -0.053973865 -0.0055203717 0.04865942 0.08518724 -0.027012903 0.10277414
0.087848306 -0.24112733 -0.03627524 0.094947495 0.0014307703 -0.13445972 0.12196694 0.012698287
-0.073876336 0.14015749 -0.16075328 0.0182848 0.08111626 -0.27498773 0.04047906 0.10230036
-0.55283964 0.040015228 0.04132776 -0.22692956 -0.010263025 0.016649218 -0.11834892 -0.08150994
0.115561604 0.12392361 0.18257976 0.07583723 -0.018019997 0.07344804 -0.12648676 -0.19427288
0.18447283 -0.10494133 0.07089396 0.13744238 0.21418914 -0.01568687 0.2057051 -0.16269428
-0.09189062 0.12538856 0.12504776 -0.019593515 -0.034216553 0.120049685 0.14888471 0.10055187
00000000: fda6 423c 6510 7bbd 586b aa3c 58d0 323c
00000010: 223b 1c3d 4cdc 03bd f743 7c3b 03ed 483d
00000020: 6c36 66bd c498 2cbd 75c6 9d3d e7be 2bbe
00000030: 687b 8ebe 2185 b7bd 15d1 1d3c 8f80 77b9
00000040: 3946 0b3e 073c 29bd 31f5 2dbd ac9f 28bc
00000050: 727a 8bbd 126a 003e 2652 1b3e ba4a 32be
00000060: a8ac afbb 3fbc 523c b829 3fbf 4986 713d
00000070: 160e 67be 39b4 17bd add1 a5bc b305 c3bc
00000080: 087e 3b3d fed5 97bd 2f7d f03b 4ed0 a2bd
00000090: 3b6b 5cbc 1955 9e3d fc79 57be 2bdc 15bd
000000a0: 10e7 5b3d 1527 54bc 256b 553d 5cca 1a3e
000000b0: da46 e0bc e0bb 933a 22f1 903b e828 783d
000000c0: 126d 19bc db9b 5dbd ae8b a4bd 7e22 143e
000000d0: 70f9 55bd fb18 d8bd 8dc9 643d ac4d 19bd
000000e0: b067 153c 41e8 dfbb 7340 e03c 27ff b3bd
000000f0: 74d0 08bd 0d35 02be d2b5 02be c9d9 233c
00000100: f4af da3c babd 34bc 73de 1a3d a30a 643c
00000110: 0ef2 c0bd 0eb3 11ba 3280 a23d 4aa6 debc
00000120: 1425 383d 3298 383e e767 93bd 5d2c eabd
00000130: c5d0 203d f84a cf3d 76d9 86bd 2a5f 293e
00000140: 2c38 e23a e924 ce3d ae48 9dbd 3d3a 78bd
00000150: aa03 c63d c713 49bc d469 a7be f682 09bd
00000160: 9fa3 babc ba97 eabc 63a2 4d3e b33f bcbe
00000170: 53a8 b03d 1178 b23c ed12 0abe 51ec c2bd
00000180: 9242 16bd 24ce 3dbe 7841 e13e 6398 373c
00000190: 76f6 aabc 663c 35be 8ac3 953c 52f9 903d
000001a0: 6b36 19be 6fe8 743c 4db0 fa3c e33c 3d3d
000001b0: 07dd 82bd 212c d23d 62a1 26be 9f73 ab3c
000001c0: 1f50 ec3d 7daa e93d c79c 803c 8d27 acbd
000001d0: c6ba e6be e311 acbb fed9 e03b 038b 273c
000001e0: 582b ad3c 5035 6cbd 98d4 e0bd c754 853d
000001f0: 9a6d 473d a40f 8abe 41cd 3cbd 5a0a 00be
00000200: 6709 673d 729f 6ebd 10b3 2f3d 8414 693d
00000210: 050d d1bd 8997 06bd 700b d8bd c9f5 b6bc
00000220: a77e 2b3e 53cb 513d e400 9c3d 639a b3be
00000230: 5461 81bd 1d6d a63d ab49 353e 055f 3d3d
00000240: 0647 e1bd 9d25 973d 7097 a63d ffec 63bd
00000250: 4ea0 fb3c 726d 37bd 2d08 69bc 6f02 2f3d
00000260: 357c d5bc 7449 1cbd 8776 433e eddc 4abe
00000270: f588 96bd 0976 0fbc 4cb8 4cbe a456 d93c
00000280: 2080 583e d5bf bb3d 64fe d1bc 8939 e9bd
00000290: 7d6f 80be 5c3b 1a3e b128 e13d 0440 cb3d
000002a0: 9d92 a03d f9ea a8bd 27b3 fa3e b78c d8ba
000002b0: a88f 06be da19 c2bd 5748 ccbc 9f14 3fbe
000002c0: a281 1bbe a0da 6a3d 6451 22bd b314 60bd
000002d0: 6144 96bc 915e 7abc e2e1 633c 9219 84bc
000002e0: 3375 1fbe 92d5 a3be 881f 89bd 0104 8b3d
000002f0: 2b79 a23d 435b 6c3d 5744 a2be 934e 8b3d
00000300: 89e0 fabc ef31 52bd 2464 2ebd 312a 74bc
00000310: c4c2 b1bd 8c9f 6c3e 9b22 b539 7508 5b3d
00000320: 8b92 f4bd 293b 1d3d b313 5dbd 3ce4 b4bb
00000330: 1a4f 473d a676 ae3d 2a4a ddbc 407b d23d
00000340: d0e9 b33d 15ea 76be 5995 14bd d573 c23d
00000350: af88 bb3a cfaf 09be cec9 f93d 7a0c 503c
00000360: 7a4c 97bd 7285 0f3e 829c 24be 01ca 953c
00000370: 4820 a63d 31cb 8cbe 5fcd 253d da82 d13d
00000380: e686 0dbf 02e7 233d 4c47 293d 3960 68be
00000390: 3f26 28bc f163 883c eb60 f2bd afee a6bd
000003a0: 90ab ec3d a9cb fd3d 30f6 3a3e 8d50 9b3d
000003b0: ac9e 93bc ed6b 963d bf85 01be 78ef 46be
000003c0: 72e6 3c3e 7beb d6bd da30 913d b2bd 0c3e
000003d0: 6654 5b3e c081 80bc 5ca4 523e 5499 26be
000003e0: 2631 bcbd dc65 003e 850c 003e 9482 a0bc
000003f0: a826 0cbd 9cdc f53d 3c75 183e 24ee cd3d

decoder.0.0.convs.1.bias f4 [64]
-0.18528056 0.03391222 0.06328637 0.089331865 0.016448637 0.06703994 0.0016810342 0.12633473
-0.049520284 0.050134685 -0.10960047 0.32157558 0.027231557 -0.0853616 0.10641546 0.091130525
0.23958905 0.2221208 0.13283063 -0.03074946 0.06386845 -0.08220133 0.034782488 -0.24767886
-0.050374236 -0.25165945 -0.045029923 0.1181783 -0.2238833 -0.16194983 -0.21474066 -0.20185442
-0.07254734 0.17611995 -0.018743515 -0.18491416 0.07518451 -0.004398376 -0.024207577 0.17384003
0.0027216682 -0.084018745 0.2630151 0.06933648 0.14236175 0.050976712 0.21263038 0.069957405
-0.11604784 -0.01927129 0.22384137 0.0039199092 0.2927307 -0.07555225 0.238665 0.13824181
0.08160886 -0.15658778 0.19385013 0.21346442 -0.011557711 0.052985933 0.17833494 0.099067666
00000000: 30ba 3dbe 8ae7 0a3d 499c 813d a0f3 b63d
00000010: 4bbf 863c 3c4c 893d 2656 dc3a e45d 013e
00000020: c8d5 4abd 075a 4d3d 3676 e0bd 8ea5 a43e
00000030: b714 df3c 10d2 aebd 59f0 d93d a4a2 ba3d
00000040: d556 753e a373 633e c104 083e 4be6 fbbc
00000050: 76cd 823d 2c59 a8bd 1578 0e3d 879f 7dbe
00000060: 3755 4ebd 82d9 80be 4c71 38bd 7707 f23d
00000070: aa41 65be 2dd6 25be fae4 5bbe edb2 4ebe
00000080: b393 94bd ca58 343e 008c 99bc 235a 3dbe
00000090: 56fa 993d 4120 90bb f84e c6bc 1f03 323e
000000a0: 045e 323b 0512 acbd eaa9 863e 4900 8e3d
000000b0: 47c7 113e f5cc 503d c7bb 593e d445 8f3d
000000c0: 7daa edbd d3de 9dbc ac36 653e 9572 803b
000000d0: cce0 953e 23bb 9abd 9964 743e 438f 0d3e
000000e0: 8c22 a73d 8c58 20be a680 463e 6b96 5a3e
000000f0: 8e5c 3dbc c707 593d 6f9d 363e fde3 ca3d

decoder.0.0.convs.4.bias f4 [64]
-0.06138233 -0.037543163 -0.09454469 0.05111372 0.033348303 -0.049165566 0.015498481 -0.09883696
-0.01746648 0.02764686 -0.06452512 -0.116001114 -0.026924925 0.045219477 0.11560846 0.053780578
0.11364081 0.036538992 -0.072987996 -0.097345054 0.017337501 0.06932671 -0.103168 -0.054907694
-0.00034169422 -0.0409926 -0.09100999 -0.015508998 -0.07236878 -0.0801118 0.008493962 -0.0680487
-0.0748292 0.015391341 0.056827933 -0.011637109 -0.083264865 0.0495154 -0.027851379 -0.08429974
-0.1092495 0.036735456 -0.060142327 0.118447736 0.11649321 0.082242854 -0.080585726 0.02427776
0.11555403 0.0038020052 -0.062456038 -0.027988844 0.020783443 -0.019335378 1.8102352e-05 0.030748744
-0.08542755 0.10113595 -0.015765889 0.035556458 -0.04733455 -0.046762392 0.10065164 -0.08897025
00000000: 0a6c 7bbd dcc6 19bd a5a0 c1bd 9f5c 513d
00000010: 3b98 083d d561 49bd 57ed 7d3c 086b cabd
00000020: dd15 8fbc ab7b e23c bf25 84bd fe91 edbd
00000030: a991 dcbc 0f38 393d 21c4 ec3d 0649 5c3d
00000040: 83bc e83d e9a9 153d bb7a 95bd d85c c7bd
00000050: 6007 8e3c 2afb 8d3d bf49 d3bd e4e6 60bd
00000060: 6c25 b3b9 dbe7 27bd 7263 babd 7419 7ebc
00000070: 1536 94bd a811 a4bd 422a 0b3c 1e5d 8bbd
00000080: 0d40 99bd f72b 7c3c 68c4 683d 93a9 3ebc
00000090: c586 aabd a9d0 4a3d 9328 e4bc 58a5 acbd
000000a0: 34be dfbd eb77 163d cd57 76bd ba94 f23d
000000b0: fe93 ee3d f16e a83d 210a a5bd 27e2 c63c
000000c0: 97a7 ec3d 102b 793b e7d1 7fbd dc48 e5bc
000000d0: 0a42 aa3c 3a65 9ebc 81da 9737 cae4 fb3c
000000e0: a4f4 aebd 5d20 cf3d 7727 81bc a6a3 113d
000000f0: e0e1 41bd ec89 3fbd 7222 ce3d 0936 b6bd

decoder.0.1.weight f4 [64]
0.86975074 0.92871314 0.89501065 1.0820007 1.0464835 1.115828 1.0213909 1.0582186
1.014643 0.8443097 0.93909484 0.9326534 0.9228489 0.92971164 1.1571788 0.85657233
1.1361712 0.9335299 0.9722842 1.1220748 1.0496727 0.9366503 0.9202725 1.1386149
0.9778587 0.95752853 1.2257525 0.93389106 0.9871864 0.832265 0.8779252 0.82567734
0.7553397 0.9472926 0.84423786 0.9993626 1.0111805 1.0525771 0.9015704 0.9450761
0.9114795 0.9171159 0.7938254 0.84235644 0.798918 0.9155547 0.83389705 0.9586342
0.95754194 1.1279024 1.0348977 1.0512059 0.9656092 0.830418 0.961893 0.8655264
0.94985443 1.2314715 1.0028131 1.047298 0.9135111 0.9044228 1.0575438 0.9585279
00000000: fca7 5e3f 25c0 6d3f 6b1f 653f 007f 8a3f
00000010: 2cf3 853f 74d3 8e3f f0bc 823f b573 873f
00000020: d2df 813f ae24 583f 8568 703f 60c2 6e3f
00000030: d33f 6c3f 9501 6e3f 6f1e 943f 5348 5b3f
00000040: 0f6e 913f d1fb 6e3f 9ee7 783f 26a0 8f3f
00000050: ad5b 863f 50c8 6f3f fb96 6b3f 22be 913f
00000060: f354 7a3f 9720 753f 75e5 9c3f 7c13 6f3f
00000070: 3fb8 7c3f 520f 553f b5bf 603f 975f 533f
00000080: f15d 413f c581 723f f91f 583f 3ad6 7f3f
00000090: 5d6e 813f d9ba 863f 51cd 663f 82f0 713f
000000a0: b856 693f 1cc8 6a3f 2438 4b3f aca4 573f
000000b0: e485 4c3f cb61 6a3f 477a 553f 0d69 753f
000000c0: 7821 753f 1b5f 903f 8777 843f ea8d 863f
000000d0: 2a32 773f 4696 543f 9f3e 763f 2393 5d3f
000000e0: a929 733f dca0 9d3f 2e5c 803f dc0d 863f
000000f0: dddb 693f 4188 673f 985d 873f 1662 753f

decoder.0.1.bias f4 [64]
-0.18143915 0.13375714 -0.36661747 0.4927217 0.060136985 0.2953568 -0.14792505 -0.09092952
0.112313725 -0.19484535 0.0050260653 -0.17314652 -0.0652182 -0.13560684 0.06735845 -0.060994502
0.24757665 0.16981348 -0.2513117 0.091160275 0.11721411 -0.08466636 0.20642486 -0.070157036
0.13715208 0.008373827 0.5327085 0.3814081 -0.033916004 -0.19408631 -0.035051033 -0.26327452
-0.09024229 -0.04803493 -0.2850551 -0.2883968 0.047160454 -0.04168459 -0.08930268 -0.13582456
0.1527658 -0.22736447 0.13325094 0.08364602 -0.3509419 -0.22609462 -0.18808128 -0.115142554
-0.22245884 0.20820035 0.07270326 -0.14098854 0.22068633 -0.28810838 -0.05660865 0.007661582
0.11706041 0.1377334 -0.15500468 0.41922244 -0.35906076 -0.3573832 -0.120426245 -0.24324371
00000000: 2fcb 39be a2f7 083e 49b5 bbbe 0546 fc3e
00000010: 3352 763d 0239 973e aa79 17be 4239 babd
00000020: bd04 e63d 8a85 47be b1b1 a43b 524d 31be
00000030: 1f91 85bd 85dc 0abe 3af3 893d 5fd5 79bd
00000040: bc84 7d3e 96e3 2d3e edab 80be 3db2 ba3d
00000050: f40d f03d 8e65 adbd 0a61 533e 7eae 8fbd
00000060: 9871 0c3e 6032 093c 965f 083f ec47 c33e
00000070: 82eb 0abd 90be 46be ac91 0fbd ebcb 86be
00000080: f3d0 b8bd 46c0 44bd bef2 91be bfa8 93be
00000090: 522b 413d 76bd 2abd 53e4 b6bd 9815 0bbe
000000a0: a36e 1c3e 3bd2 68be ef72 083e 9b4e ab3d
000000b0: a8ae b3be 5985 67be 6198 40be dccf ebbd
000000c0: 40cc 63be 7932 553e 72e5 943d 4d5f 10be
000000d0: 99fb 613e f182 93be 79de 67bd 020e fb3b
000000e0: 5ebd ef3d fc09 0d3e 8cb9 1ebe 53a4 d63e
000000f0: d0d6 b7be eefa b6be 09a2 f6bd e114 79be

decoder.0.1.running_mean f4 [64]
-0.05170512 -1.2349726 0.6960632 -0.51101273 -0.5888056 -0.4984055 -0.2235784 -0.4689043
0.2929487 -0.09748507 -0.14163001 -0.12860708 -1.311322 -0.9082433 -1.6023587 0.88548857
0.056529425 -0.95456016 0.18296133 -1.0379976 -1.563109 -0.5322827 -0.8077405 -0.21735688
-0.55356246 -0.40984282 -1.4739705 -0.06721464 -0.20460114 -0.39887202 -1.5925945 -0.38957664
-0.25395665 -0.15513885 2.187506 -0.15098771 -2.036209 -1.3260953 -0.6964207 -0.09237958
-1.2697105 -1.4411778 0.96627 -0.22317569 0.32933417 -1.1380072 -1.0722318 -0.6678547
-1.2827688 -1.0984348 -2.083398 0.40277386 -0.7331449 -0.0071786465 -1.2068518 -0.50568074
-1.8998053 -1.8089042 -2.21807 -2.4107742 -0.69135135 0.73878807 -0.5228656 -0.525021
00000000: bfc8 53bd 9513 9ebf 3331 323f bbd1 02bf
00000010: f7bb 16bf 012f ffbe bcf1 64be 3914 f0be
00000020: 5ffd 953e 41a6 c7bd 7507 11be 93b1 03be
00000030: 66d9 a7bf a282 68bf 171a cdbf 61af 623f
00000040: 668b 673d 0e5e 74bf 375a 3b3e 1bdd 84bf
00000050: f513 c8bf ae43 08bf 15c8 4ebf cd92 5ebe
00000060: 45b6 0dbf ebd6 d1be 11ab bcbf d4a7 89bd
00000070: f682 51be f438 ccbe 23da cbbf 9776 c7be
00000080: 9b06 82be b8dc 1ebe 1900 0c40 869c 1abe
00000090: 4051 02c0 7ebd a9bf a148 32bf 8131 bdbd
000000a0: e085 a2bf 8478 b8bf 795d 773f 2b88 64be
000000b0: 7d9e a83e 38aa 91bf e43e 89bf 87f8 2abf
000000c0: c531 a4bf 8399 8cbf 6556 05c0 6038 ce3e
000000d0: 62af 3bbf da3a ebbb 1f7a 9abf 4b74 01bf
000000e0: d22c f3bf 2c8a e7bf dcf4 0dc0 204a 1ac0
000000f0: 67fc 30bf 3721 3d3f 85da 05bf c767 06bf

decoder.0.1.running_var f4 [64]
1.46817 0.9198263 2.2412488 1.7992406 2.0401096 1.8663168 1.4121779 1.4331478
1.5113033 2.417734 1.1871982 0.8879923 2.2965553 0.9433153 2.184561 0.5723788
1.7661358 1.3583596 2.3307133 2.1171753 1.6345063 3.0246034 1.0780711 1.4775321
1.164812 1.8023691 4.1076107 1.8486623 1.384279 0.8834712 1.6611109 1.036452
1.5343255 2.102378 1.8602289 0.9140814 1.743017 1.2723985 0.8488311 1.7317668
1.1546822 1.447955 1.9466307 1.4021454 2.1294818 0.942027 1.3873987 1.572366
1.0567347 1.7679191 2.1428657 1.3100243 0.8804888 1.2894971 2.1790342 1.205963
1.9793509 2.6783032 1.4125485 2.0430496 1.0997919 1.6311427 1.8145783 0.7643849
00000000: ffec bb3f bd79 6b3f 9f70 0f40 844d e63f
00000010: 2891 0240 78e3 ee3f 3fc2 b43f 6371 b73f
00000020: 6372 c13f 27bc 1a40 1cf6 973f 7753 633f
00000030: c3fa 1240 1d7d 713f d9cf 0b40 6b87 123f
00000040: bd10 e23f bade ad3f 682a 1540 cd7f 0740
00000050: 8137 d13f 1a93 4140 3cfe 893f c61f bd3f
00000060: 8f18 953f 08b4 e63f 8c71 8340 f7a0 ec3f
00000070: 0e30 b13f 2b2b 623f 489f d43f 76aa 843f
00000080: c764 c43f 5c8d 0640 fb1b ee3f 3d01 6a3f
00000090: 2e1b df3f f4dd a23f ff4c 593f 89aa dd3f
000000a0: a0cc 933f 9756 b93f 322b f93f 8079 b33f
000000b0: 6e49 0840 ae28 713f 4896 b13f 4a43 c93f
000000c0: 1543 873f 2c4b e23f b624 0940 e0ae a73f
000000d0: b767 613f 3e0e a53f 4c75 0b40 ff5c 9a3f
000000e0: 5f5b fd3f 5269 2b40 64ce b43f 53c1 0240
000000f0: fbc5 8c3f 49c9 d03f 1a44 e83f bbae 433f

decoder.1.0.convs.1.weight f4 [64, 64, 3, 3]
0.22616705 -0.16754843 -0.3669955 -0.09109073 -0.6116354 0.0030341647 -0.163555 -0.62961364
0.23316985 -0.17137864 -0.107994005 -0.2949401 0.020517878 -0.0933655 -0.023003854 -0.014507277
0.21458514 -0.13716102 0.020200768 0.18654831 -0.29441053 -0.19584365 0.0999654 -0.0020526743
-0.097767815 -0.036754604 0.10085045 0.20988165 0.108052835 -0.053827982 0.030502228 0.12268432
-0.0032364624 -0.016236251 -0.1033829 -0.014724675 -0.14579591 -0.20281883 0.09942876 0.030509477
-0.27962682 0.049144026 0.2131423 -0.15761942 0.16591729 -0.008970307 -0.12106851 0.21210667
-0.040748794 0.033158414 0.006826905 0.009710973 0.054677855 0.12027077 0.12271299 -0.13915856
-0.28692472 -0.04596799 0.074745364 0.10319673 0.044038605 0.035730023 -0.03516384 -0.3471812
-0.40053055 -0.059285488 0.20101136 0.0019249913 0.08038149 0.12677181 -0.3601462 -0.09773007
-0.29933664 -0.39584655 -0.27725852 -0.014672132 0.088361956 0.07292936 -0.015836421 0.18898867
0.064407565 -0.22346094 -0.0558545 -0.04222222 -0.15823114 0.14971156 0.016415397 0.09738353
-0.28094104 0.069365665 0.1833302 0.13074481 0.17335863 0.0070680836 0.08262139 -0.03165576
-0.07897846 0.0810922 0.077229746 -0.09392125 0.031337097 -0.10029671 0.077093415 0.1756057
-0.12596637 0.005102018 -0.12860431 -0.13637187 0.041905187 -0.29054776 0.26690114 0.00027357964
-0.038933735 0.13198315 0.11141329 0.120455526 -0.011663667 0.09123715 -0.002558273 0.045397494
-0.045466796 -0.28694826 -0.015462124 -0.15026759 -0.13260955 0.079552 0.07276278 -0.07687377
0.12625411 0.036290452 0.11989199 -0.13733125 0.045241434 -0.10167544 -0.031965934 0.28718498
-0.06663263 -0.17681122 0.085411206 -0.22143953 0.059030466 -0.21881473 0.1700073 0.034573447
0.12790486 -0.15376765 0.14247562 -0.08665127 0.25737742 0.035662405 0.06426347 0.09826428
-0.03858169 0.35437366 0.010240933 -0.027924642 -0.09477837 -0.08337177 0.00016799585 -0.11119018
-0.032550525 0.03221869 -0.07428225 0.24656364 0.018621925 0.106541745 -0.120972015 -0.07767316
0.025723908 -0.06286112 -0.043516316 0.004015393 -0.35199896 -0.025082529 0.21921213 0.039699443
-0.12473647 0.22223732 -0.13255128 0.050340924 0.10122316 -0.10564252 -0.097254634 -0.047245245
0.15014891 0.012816888 0.09094896 -0.22899625 -0.049578335 0.12703094 -0.06247854 -0.17030744
0.06744864 0.028479818 0.029063135 0.07325271 -0.42958328 -0.20968716 0.17238939 -0.2574423
-0.09693846 -0.25271484 0.028821124 -0.089325376 -0.09624128 0.05842837 -0.025558501 0.11684257
-0.20237742 0.008873651 0.114279985 0.083815716 -0.020893551 -0.033409823 0.08025317 -0.11807355
-0.27644226 -0.01975598 0.2509176 -0.08465763 0.01197563 -0.007986955 0.008049605 -0.03863622
0.029483292 -0.03456529 0.19494365 -0.18721761 -0.056315586 0.06600774 0.090585046 -0.026170602
-0.015940871 0.27604818 0.18351653 -0.24621223 -0.054503236 0.07695777 -0.13369618 0.025607586
-0.15164971 0.21738392 0.06597665 -0.27366486 -0.0005630905 0.35892612 0.008001322 -0.22197859
-0.034364514 0.03893888 0.07344765 -0.10409504 -0.015248817 0.24623902 -0.10953939 0.115646094
00000000: 5698 673e d191 2bbe d6e6 bbbe c78d babd
00000010: 2394 1cbf d6d8 463b f67a 27be 5c2e 21bf
00000020: 14c4 6e3e e27d 2fbe f62b ddbd 6402 97be
00000030: 1c15 a83c 6936 bfbd 9472 bcbc eeaf 6dbc
00000040: 35bc 5b3e f073 0cbe 157c a53c 8506 3f3e
00000050: fabc 96be 3d8b 48be a9ba cc3d 2986 06bb
00000060: 7e3a c8bd ff8b 16bd ae8a ce3d 37eb 563e
00000070: ce4a dd3d bb7a 5cbd cfdf f93c eb41 fb3d
00000080: d41a 54bb e301 85bc 6aba d3bd c33f 71bc
00000090: 864b 15be bdaf 4fbe 4ea1 cb3d 03ef f93c
000000a0: 3f2b 8fbe 3f4b 493d fa41 5a3e fc66 21be
000000b0: 39e6 293e 32f8 12bc c4f2 f7bd 7e32 593e
000000c0: 35e8 26bd 1ed1 073d 3bb4 df3b c61a 1f3c
000000d0: e3f5 5f3d 8550 f63d f350 fb3d 957f 0ebe
000000e0: cce7 92be ee48 3cbd 1914 993d cf58 d33d
000000f0: d361 343d a559 123d f507 10bd bcc1 b1be
00000100: 5712 cdbe 57d5 72bd ecd5 4d3e fd4f fc3a
00000110: 0d9f a43d 78d0 013e 1565 b8be b426 c8bd
00000120: a742 99be 66ac cabe d4f4 8dbe 6263 70bc
00000130: 1df7 b43d fd5b 953d 62bb 81bc 3f86 413e
00000140: 1de8 833d f2d2 64be b0c7 64bd 35f1 2cbd
00000150: 5807 22be fd4d 193e 9579 863c 0471 c73d
00000160: 81d7 8fbe 960f 8e3d e9ba 3b3e f8e1 053e
00000170: ed84 313e 629b e73b 6735 a93d 78a9 01bd
00000180: 75bf a1bd ab13 a63d a12a 9e3d c959 c0bd
00000190: 545b 003d 5d68 cdbd 27e3 9d3d fbd1 333e
000001a0: 54fd 00be d42e a73b d9b0 03be 11a5 0bbe
000001b0: c6a4 2b3d adc2 94be 44a7 883e 3d6f 8f39
000001c0: fb78 1fbd 9726 073e a72c e43d 63b1 f63d
000001d0: f718 3fbc 8bda ba3d b3a8 27bb b9f2 393d
000001e0: 643b 3abd e2ea 92be d954 7dbc bfdf 19be
000001f0: ccca 07be 29ec a23d a704 953d ff6f 9dbd
00000200: c248 013e 4ca5 143d ef89 f53d 90a0 0cbe
00000210: 154f 393d 373b d0bd b6ee 02bd e909 933e
00000220: b076 88bd 000e 35be 12ec ae3d 0bc1 62be
00000230: eec9 713d f810 60be 6516 2e3e e39c 0d3d
00000240: 7ef9 023e 4475 1dbe 21e5 113e 3976 b1bd
00000250: f9c6 833e be12 123d 919c 833d c83e c93d
00000260: d607 1ebd 7770 b53e 96c9 273c 38c2 e4bc
00000270: 291b c2bd d2be aabd 0b28 3039 adb7 e3bd
00000280: b353 05bd bff7 033d 4b21 98bd 2e7b 7c3e
00000290: 028d 983c 8f32 da3d 2dc0 f7bd 1b13 9fbd
000002a0: f2ba d23c 55bd 80bd 2a3e 32bd 8f93 833b
000002b0: 3539 b4be e079 cdbc 2579 603e e29b 223d
000002c0: d675 ffbd 2e92 633e 86bb 07be 4932 4e3d
000002d0: 174e cf3d 1b5b d8bd 702d c7bd 3b84 41bd
000002e0: a3c0 193e edfd 513c 7343 ba3d fe7d 6abe
000002f0: a712 4bbd 6614 023e 7fe9 7fbd 1365 2ebe
00000300: 8322 8a3d 824e e93c d015 ee3c 8405 963d
00000310: 57f2 dbbe 3bb8 56be d886 303e 7acf 83be
00000320: ac87 c6bd d763 81be 471a ec3c 39f0 b6bd
00000330: 261a c5bd 9652 6f3d 1060 d1bc 284b ef3d
00000340: 073c 4fbe ca62 113c a00b ea3d 93a7 ab3d
00000350: f428 abbc bdd8 08bd c65b a43d 8cd0 f1bd
00000360: d789 8dbe 4bd7 a1bc 4678 803e fb60 adbd
00000370: 6f35 443c b8db 02bc 7ee2 033c 0341 1ebd
00000380: f286 f13c 5594 0dbd 4f9f 473e f9b5 3fbe
00000390: 2cab 66bd 112f 873d a784 b93d bb63 d6bc
000003a0: 6e96 82bc 3056 8d3e c2eb 3b3e 0f1f 7cbe
000003b0: c93e 5fbd 099c 9d3d a7e7 08be 00c7 d13c
000003c0: 104a 1bbe e499 5e3e c41e 873d cd1d 8cbe
000003d0: 5d9c 13ba 2ac5 b73e fa17 033c 5b4e 63be
000003e0: cec1 0cbd 607e 1f3d b96b 963d c82f d5bd
000003f0: 2dd6 79bc 1526 7c3e 3056 e0bd dcd7 ec3d

decoder.1.0.convs.1.bias f4 [64]
-0.0020677883 0.108373344 0.035083607 0.04929521 -0.07186967 0.029478308 -0.02334036 0.020184666
0.101434655 0.23224829 0.123509265 0.09304021 0.13201624 0.19597585 0.042644143 0.02930594
0.06539423 -0.0077157174 0.119381845 1.1812412 0.07043032 0.08550347 0.12755026 -0.23242797
-0.08185156 0.052228417 -0.045851048 0.02427291 0.0934916 0.022435961 -0.047196846 -0.18156655
0.0317892 -0.08901531 0.029833283 0.122437164 0.04401998 -0.021596668 0.18476072 0.08941169
0.037200388 0.02292532 0.012578523 0.12052465 0.23031192 0.03523133 -0.052810334 0.2906744
0.097666234 -0.024739591 1.0711671 0.00270097 0.0747621 -0.025177946 -0.08630024 0.06444435
0.024345394 0.3300812 -0.041947413 -0.10657778 0.06234476 -0.045743134 0.033475075 0.033760518
00000000: bb83 07bb d8f2 dd3d d4b3 0f3d c6e9 493d
00000010: 6830 93bd 7e7c f13c 4834 bfbc 505a a53c
00000020: f9bc cf3d 7fd2 6d3e 6df2 fc3d de8b be3d
00000030: 442f 073e e5ad 483e a0ab 2e3d 0313 f03c
00000040: 69ed 853d 21d4 fcbb 787e f43d e932 973f
00000050: c63d 903d 711c af3d 899c 023e 9901 6ebe
00000060: caa1 a7bd 77ed 553d 4fce 3bbd fbd7 c63c
00000070: 8678 bf3d 9fcb b73c 7b51 41bd 95ec 39be
00000080: 6435 023d a94d b6bd ee64 f43c 56c0 fa3d
00000090: 4b4e 343d 7feb b0bc ea31 3d3e 7a1d b73d
000000a0: 6f5f 183d e1cd bb3c 2616 4e3c a1d5 f63d
000000b0: e3d6 6b3e ba4e 103d a64f 58bd 46d3 943e
000000c0: 3c05 c83d afaa cabc 011c 893f c202 313b
000000d0: df1c 993d fb41 cebc 2ebe b0bd 66fb 833d
000000e0: fe6f c73c 6700 a93e 0dd1 2bbd 7345 dabd
000000f0: 385d 7f3d 275d 3bbd 291d 093d 7848 0a3d

decoder.1.0.convs.4.weight f4 [64, 64, 1, 1]
-0.31518117 0.108077124 0.088282146 0.15716867 -0.018577043 -0.17091063 -0.034261864 0.13715284
-0.028681953 0.07514117 -0.08781998 -0.00439098 -0.2605032 0.12349449 0.10798734 -0.15109584
0.031366214 -0.10347387 -0.24518982 0.07726168 0.04969701 -0.023569398 0.19214283 0.1449313
-0.028279437 -0.17255491 -0.035523195 0.12236646 -0.2807889 0.027664695 -0.12775953 -0.08114014
-0.018714026 0.32394132 -0.15758452 0.017677374 0.1118375 5.07294e-05 0.24250887 0.16978592
0.02105155 0.092024535 -0.13374309 -0.3412167 -0.0967295 -0.40581068 0.11505181 -0.11817491
-0.18411954 0.058123056 0.06260205 -0.009655878 -0.27907795 0.2000331 0.018829633 -0.09774287
-0.10038431 0.053869046 -0.01578922 0.13168137 0.024451433 0.1020142 -0.06427139 0.13214608
0.10591145 0.07113266 -0.1071671 0.24844946 0.059022106 -0.0992788 -0.2227444 0.098679766
-0.2863675 -0.07832943 -0.07319321 0.05968438 0.26153523 -0.028589759 0.068145014 -0.04106677
-0.04472486 -0.14794804 -0.18428627 -0.14424281 -0.07404009 -0.028559327 -0.2492692 -0.11712142
0.16620266 0.026248768 -0.14226294 -0.027799718 -0.056335155 -0.087249584 0.05716002 -0.117719665
-0.10443876 -0.017567622 0.101528265 0.019787122 -0.040323664 0.20267195 0.28358287 0.00260401
0.16989216 -0.13798425 -0.23405285 -0.04933826 0.08430777 0.07042622 -0.20955859 0.1681611
-0.05590329 0.012723443 0.075807 -0.026806185 0.08075362 -0.34381345 -0.16666873 -0.0073004756
-0.0061054286 -0.023514463 -0.18336703 0.058553822 0.073873445 0.24586193 0.22883144 0.15118277
-0.2583611 -0.1199779 0.18724735 0.20621648 -0.009118973 -0.014758573 -0.06987936 0.20823136
-0.13932143 0.27460158 0.07934422 -0.18112977 -0.16092797 0.057567775 -0.164488 0.17871965
-0.025128588 -0.029048983 -0.029009936 0.050724853 -0.08672544 0.14694382 -0.00676559 0.05353412
-0.010318302 -0.2625248 0.3472703 0.13685302 -0.045206856 0.1563675 -0.24712148 -0.07444039
-0.026625268 -0.098800555 0.08730555 -0.03908298 -0.27307767 0.037001487 0.16071066 0.05239437
-0.006404741 0.08187989 0.029273514 -0.18265142 0.15630285 0.017501876 -0.04020039 0.03062997
-0.043354813 -0.020183908 0.05592699 -0.029294204 0.24045426 -0.1903088 -0.26475385 -0.18904315
0.16271544 -0.02514299 -0.06703895 0.17694235 -0.113069005 -0.15037395 0.058678966 0.12651607
0.34400883 0.017807297 -0.016744308 -0.16026594 0.022436436 -0.018317986 0.09669742 -0.09002316
0.05015832 0.07207329 0.21988052 -0.09822999 0.1225199 0.19688049 0.004441741 0.03287293
-0.010382414 0.18309951 0.08671388 0.11262367 0.06828164 0.019601325 0.035836544 0.004122641
-0.11823497 -0.0135153765 -0.02852674 0.017306691 0.026095284 -0.04203568 0.0928454 0.22642879
-0.2712274 -0.056633998 0.034173694 0.1091365 0.18376972 -0.057238534 -0.046143327 0.0008366308
0.042098336 -0.26065424 -0.16206828 -0.1517865 0.07575368 -0.21452545 0.14420764 0.06493871
-0.06200959 0.0039910846 0.031498678 -0.07062814 -0.031158658 0.051321574 -0.061195314 -0.047028236
-0.12111919 -0.25247237 -0.0012411583 0.12519747 0.1512736 0.04396558 -0.12572235 -0.07104353
00000000: 6d5f a1be 8a57 dd3d 45cd b43d d3f0 203e
00000010: e22e 98bc 3203 2fbe 2b56 0cbd cb71 0c3e
00000020: 6af6 eabc 9de3 993d f6da b3bd 36e2 8fbb
00000030: ad60 85be aeea fc3d 7728 dd3d deb8 1abe
00000040: dc79 003d 1cea d3bd 0a13 7bbe 5f3b 9e3d
00000050: 188f 4b3d 9c14 c1bc 17c1 443e df68 143e
00000060: 47aa e7bc 3cb2 30be c580 11bd 449b fa3d
00000070: 90c3 8fbe 12a1 e23c 65d3 02be cd2c a6bd
00000080: 284e 99bc a3db a53e d65d 21be 24d0 903c
00000090: 0f0b e53d 47c6 5438 3f54 783e 5cdc 2d3e
000000a0: 4d74 ac3c 5c77 bc3d f3f3 08be f5b3 aebe
000000b0: 1e1a c6bd 6bc6 cfbe 49a0 eb3d b005 f2bd
000000c0: d589 3cbe 7112 6e3d 8135 803d b033 1ebc
000000d0: 4ee3 8ebe 7ad5 4c3e 9a40 9a3c 6a2d c8bd
000000e0: 4a96 cdbd caa5 5c3d 6558 81bc 7bd7 063e
000000f0: 5f4e c83c d2ec d03d b8a0 83bd 4d51 073e
00000100: 1ae8 d83d 00ae 913d 6d7a dbbd 8969 7e3e
00000110: 2ac1 713d af52 cbbd 1c17 64be 9e18 ca3d
00000120: c39e 92be 2e6b a0bd 52e6 95bd 9c77 743d
00000130: f2e7 853e 1235 eabc 9d8f 8b3d a135 28bd
00000140: 6a31 37bd b17f 17be 8ab5 3cbe 63b4 13be
00000150: 55a2 97bd 40f5 e9bc 6d40 7fbe 5bdd efbd
00000160: 0831 2a3e a807 d73c 60ad 11be 3cbc e3bc
00000170: b1bf 66bd e9af b2bd a020 6a3d 0217 f1bd
00000180: fde3 d5bd f9e9 8fbc 0dee cf3d 9a18 a23c
00000190: 6d2a 25bd 3c89 4f3e c631 913e 0aa8 2a3b
000001a0: 36f8 2d3e be4b 0dbe 8dab 6fbe ea16 4abd
000001b0: 8da9 ac3d 9f3b 903d 8796 56be 6c32 2c3e
000001c0: d9fa 64bd fd75 503c b340 9b3d a598 dbbc
000001d0: 2762 a53d 5108 b0be 35ab 2abe d438 efbb
000001e0: 0c10 c8bb 67a1 c0bc 91c4 3bbe 22d6 6f3d
000001f0: f64a 973d 3bc3 7b3e ca52 6a3e a8cf 1a3e
00000200: e847 84be f9b6 f5bd c5bd 3f3e 6a2a 533e
00000210: bf67 15bc f1cd 71bc e91c 8fbd 9a3a 553e
00000220: 47aa 0ebe 9498 8c3e 397f a23d 157a 39be
00000230: 4dca 24be 30cc 6b3d 8b6f 28be 4902 373e
00000240: 78da cdbc 22f8 edbc 3fa6 edbc ddc4 4f3d
00000250: 1c9d b1bd 7178 163e e2b1 ddbb 9846 5b3d
00000260: 180e 29bc a769 86be 6acd b13e 3323 0c3e
00000270: d32a 39bd cd1e 203e 6a0d 7dbe 3474 98bd
00000280: 3c1d dabc f257 cabd 41cd b23d 7a15 20bd
00000290: d6d0 8bbe df8e 173d 5691 243e 7b9b 563d
000002a0: ddde d1bb a5b0 a73d 02cf ef3c f908 3bbe
000002b0: db0d 203e 1860 8f3c 2aa9 24bd b4eb fa3c
000002c0: d194 31bd b958 a5bc b313 653d 66fa efbc
000002d0: a439 763e 4fe0 42be d18d 87be 8794 41be
000002e0: e09e 263e acf8 cdbc b84b 89bd 6030 353e
000002f0: b990 e7bd a1fb 19be 5b59 703d 6e8d 013e
00000300: ed21 b03e 9ce0 913c 5c2b 89bc c11c 24be
00000310: 9ecc b73c 9a0f 96bc 4c09 c63d 105e b8bd
00000320: d072 4d3d 299b 933d 5c28 613e ce2c c9bd
00000330: b7eb fa3d 0a9b 493e 068c 913b c4a5 063d
00000340: 001b 2abc 707e 3b3e 0c97 b13d 3da7 e63d
00000350: 3fd7 8b3d f592 a03c 57c9 123d 3817 873b
00000360: 2d25 f2bd 996f 5dbc e9b0 e9bc c3c6 8d3c
00000370: c7c5 d53c 9b2d 2cbd bb25 be3d f3dc 673e
00000380: 51de 8abe 0df9 67bd b7f9 0b3d f582 df3d
00000390: 212e 3c3e f472 6abd c900 3dbd 5851 5b3a
000003a0: 4e6f 2c3d 7974 85be 3af5 25be ec6d 1bbe
000003b0: bf24 9b3d 8fac 5bbe 2bab 133e 96fe 843d
000003c0: c5fd 7dbd a5c7 823b c204 013d 7ca5 90bd
000003d0: 7140 ffbc 9236 523d f0a7 7abd aea0 40bd
000003e0: 560d f8bd 0f44 81be 5dae a2ba c433 003e
000003f0: 77e7 1a3e 4115 343d 5cbd 00be 457f 91bd

decoder.1.0.convs.4.bias f4 [64]
0.06998052 0.07534338 -0.0039681676 -0.020449432 -0.035560943 0.093935855 0.081016414 0.054903224
-0.10938655 0.07342595 -0.01824553 -0.028303621 0.042021826 0.035447255 -0.055190563 -0.020538282
-0.0042491057 0.0001796846 0.08601139 0.079805344 -0.06675356 -0.048325874 -0.056299802 0.11836968
-0.012121685 -0.01664691 -0.006411818 0.1100569 -0.09508391 -0.027757326 0.047114525 -0.08024375
-0.011682369 0.0018805236 -0.0031731923 -0.08574993 -0.05179936 0.09769127 -0.10114795 0.10004725
0.0862 -0.07062427 -0.08765782 0.104782544 0.089968935 0.051981874 0.031250168 0.12045052
0.017792933 0.028151598 0.08825636 -0.07683412 -0.09725203 -0.097637296 -0.114922926 -0.051872946
-0.092009194 0.07451961 -0.10799709 0.007562493 0.07843413 -0.102093615 0.02508398 0.07027039
00000000: f251 8f3d a14d 9a3d 6707 82bb 9185 a7bc
00000010: 5aa8 11bd 7161 c03d efeb a53d 34e2 603d
00000020: 0e06 e0bd 5860 963d a677 95bc ffdc e7bc
00000030: 141f 2c3d 2431 113d 800f 62bd e63f a8bc
00000040: 153c 8bbb b869 3c39 bd26 b03d fc70 a33d
00000050: 17b6 88bd 5af1 45bd 9f9a 66bd ce6b f23d
00000060: 089a 46bc 1a5f 88bc 3a1a d2bb 8365 e13d
00000070: 5abb c2bd 5563 e3bc 29fb 403d d656 a4bd
00000080: 6867 3fbc e77b f63a 55f5 4fbb a99d afbd
00000090: 912b 54bd 5c12 c83d a826 cfbd 93e5 cc3d
000000a0: a089 b03d 75a3 90bd f185 b3bd 3b98 d63d
000000b0: a241 b83d f2ea 543d 2d00 003d c3ae f63d
000000c0: 7cc2 913c 2e9e e63c c0bf b43d 355b 9dbd
000000d0: 132c c7bd 10f6 c7bd b65c ebbd ba78 54bd
000000e0: 516f bcbd bd9d 983d 942d ddbd cace f73b
000000f0: 13a2 a03d 7516 d1bd eb7c cd3c ece9 8f3d

decoder.1.1.weight f4 [64]
0.9144246 0.9100027 0.82750314 1.1366472 1.1076859 1.1300465 0.95081204 1.0257294
1.0474102 0.9935053 0.9178445 0.8925517 0.89416164 0.84691113 1.1439362 0.9269557
1.1138167 0.8287998 0.87110645 1.0720129 0.9650033 0.95952135 0.9505875 1.0617957
1.1001701 0.948313 1.1828083 1.0454122 0.94130504 0.90209746 0.90772825 0.85592407
0.906978 0.88102853 0.8671632 0.97454834 0.8383558 0.9182586 0.91208506 0.95703006
1.0346037 0.99510616 0.90593946 0.97850907 0.90611 0.9392144 0.8213185 1.086314
0.9059475 1.0933682 1.0059658 1.0167537 0.9930831 0.94042856 1.020931 0.8745722
0.8692585 1.1749243 1.0408317 0.8942715 1.0609612 1.0017887 1.0259976 0.9592901
00000000: bb17 6a3f f0f5 683f 3fd7 533f a87d 913f
00000010: a7c8 8d3f 5da5 903f 6b68 733f 1a4b 833f
00000020: 8a11 863f 5d56 7e3f dbf7 6a3f 457e 643f
00000030: c7e7 643f 2bcf 583f 806c 923f f84c 6d3f
00000040: 8c91 8e3f 392c 543f d500 5f3f b837 893f
00000050: 750a 773f 31a3 753f b459 733f ece8 873f
00000060: 60d2 8c3f a4c4 723f 4366 973f 11d0 853f
00000070: 5ef9 703f dcef 663f e160 683f d71d 5b3f
00000080: b62f 683f 168b 613f 68fe 5d3f 007c 793f
00000090: 7c9e 563f ff12 6b3f 687e 693f ecff 743f
000000a0: e56d 843f 47bf 7e3f a6eb 673f 927f 7a3f
000000b0: d3f6 673f 5b70 703f ee41 523f 560c 8b3f
000000c0: 2dec 673f 7df3 8b3f 7dc3 803f fc24 823f
000000d0: b23a 7e3f edbf 703f dead 823f f7e3 5f3f
000000e0: ba87 5e3f eb63 963f f939 853f faee 643f
000000f0: 94cd 873f 9d3a 803f e453 833f 0994 753f

decoder.1.1.bias f4 [64]
-0.09033572 -0.15617171 -0.2837179 0.15262398 0.023740115 0.30526435 -0.024129435 -0.28081405
0.17154618 0.043422803 -0.10415086 -0.19179155 0.09011178 -0.07010443 -0.091758214 -0.21513844
0.08148563 0.22186682 -0.35680816 0.09688037 0.2714781 -0.03875974 0.09169308 -0.019481547
-0.013812973 -0.033105873 0.35853258 0.23279475 0.038016703 -0.13540843 -0.29574654 0.030481707
-0.18570766 -0.18474135 -0.26702505 -0.1618383 0.18007383 -0.20181684 -0.11595976 0.11888971
0.109235756 -0.09222497 -0.25890398 0.06915039 -0.14247574 -0.13516864 -0.10354958 0.052443486
-0.118762515 0.24416682 -0.14941525 -0.22183745 0.0012844566 -0.13347152 -0.079785414 0.18250082
0.14964145 0.15782455 -0.18100095 0.058773093 -0.07940149 -0.2494205 -0.22209804 -0.033357657
00000000: ef01 b9bd 7aeb 1fbe 7943 91be 7649 1c3e
00000010: a17a c23c 9c4b 9c3e 18ab c5bc dcc6 8fbe
00000020: cda9 2f3e 1cdc 313d 0c4d d5bd 0165 44be
00000030: 868c b83d e992 8fbd bbeb bbbd 404d 5cbe
00000040: f0e1 a63d 0e31 633e 8faf b6be 3769 c63d
00000050: 2dff 8a3e 88c2 1ebd 95c9 bb3d c497 9fbc
00000060: cf4f 62bc 069a 07bd 9591 b73e bf61 6e3e
00000070: 67b7 1b3d 82a8 0abe 176c 97be c6b4 f93c
00000080: 262a 3ebe d62c 3dbe 82b7 88be f0b8 25be
00000090: 4665 383e 13a9 4ebe 507c edbd 737c f33d
000000a0: ffb6 df3d 72e0 bcbd 108f 84be b89e 8d3d
000000b0: 29e5 11be a669 0abe cd11 d4bd fbce 563d
000000c0: c339 f3bd de06 7a3e 5000 19be 5b29 63be
000000d0: 365b a83a c2ac 08be 8966 a3bd 7fe1 3a3e
000000e0: 9c3b 193e c29c 213e 5058 39be 0ebc 703d
000000f0: 409d a2bd 1668 7fbe ab6d 63be 0aa2 08bd

decoder.1.1.running_mean f4 [64]
0.23036797 -0.4851183 0.036734223 1.5793558 -0.55975926 1.307736 1.5860828 1.5410316
-0.5762666 0.2523321 -1.5155549 0.3693872 -1.4821614 1.5589489 -0.7242048 1.0005285
-1.6626728 -1.3549905 1.0650766 -1.3667598 -5.2386756 -2.2820895 -0.12667777 -2.3034072
-0.6005465 -0.63111055 0.76008296 -0.4064428 -1.5074979 -2.4512982 -3.1112976 -2.1946843
-2.3059168 -0.76808834 0.23224814 1.1046585 1.0809195 -0.73610353 1.0136946 -1.0323682
-2.2353523 -3.0590117 4.3249736 -2.123647 0.65732986 -1.1386071 -1.2056706 0.57097036
-0.41347128 -1.888779 -1.5446874 -1.1012648 -2.413516 -1.0930339 -1.8711243 -1.0968276
-2.4711065 -0.5763994 -1.9583273 -0.8105817 -2.3230042 -1.358687 -0.38166755 -2.4982526
00000000: 95e5 6b3e 6d61 f8be a076 163d 5528 ca3f
00000010: 624c 0fbf e563 a73f c304 cb3f 8640 c53f
00000020: 3586 13bf ac31 813e b4fd c1bf 5220 bd3e
00000030: 77b7 bdbf a38b c73f 7c65 39bf 5111 803f
00000040: 76d2 d4bf 5470 adbf 6e54 883f fcf1 aebf
00000050: 3ba3 a7c0 c10d 12c0 d1b7 01be 066b 13c0
00000060: 6abd 19bf 7690 21bf cc94 423f 4519 d0be
00000070: b1f5 c0bf 12e2 1cc0 801f 47c0 b575 0cc0
00000080: 2494 13c0 70a1 44bf 75d2 6d3e 7365 8d3f
00000090: 925b 8a3f 4871 3cbf bfc0 813f a424 84bf
000000a0: 0310 0fc0 d9c6 43c0 2f66 8a40 d5e9 07c0
000000b0: c546 283f e1bd 91bf 6a53 9abf 1d2b 123f
000000c0: 82b2 d3be 83c3 f1bf 51b8 c5bf 3ff6 8cbf
000000d0: 0c77 1ac0 89e8 8bbf 0081 efbf d964 8cbf
000000e0: 9c26 1ec0 e98e 13bf 78aa fabf 4882 4fbf
000000f0: 1aac 14c0 75e9 adbf ee69 c3be 5fe3 1fc0

decoder.1.1.running_var f4 [64]
2.0429525 2.3959217 2.700032 3.0873575 2.896701 2.362663 2.2577913 3.1995907
3.321373 2.3683736 3.4552205 3.7722213 2.6793287 3.6085346 4.546283 2.7956576
1.8233435 2.669806 3.083118 2.895108 5.1869283 2.7689335 3.1574335 3.1234815
4.241451 2.3403687 3.5466998 4.472869 3.4526348 3.4610176 2.3335884 2.4062917
2.8199546 1.9655144 2.4917147 3.0039427 2.514782 1.8017821 3.1450863 2.9521763
3.3267117 3.2247016 4.6943116 2.8275762 2.7089245 2.541785 2.581154 2.672374
2.4130392 3.112325 2.2200773 2.5580456 2.2720258 2.1107118 2.1332383 2.8626041
2.0857294 5.214086 2.843776 3.2181082 2.6870832 2.5520782 3.0302365 2.340919
00000000: bcbf 0240 c856 1940 53cd 2c40 4497 4540
00000010: 8d63 3940 df35 1740 a77f 1040 18c6 4c40
00000020: 6091 5440 6f93 1740 5522 5d40 136c 7140
00000030: 1f7a 2b40 3bf2 6640 267b 9140 0eec 3240
00000040: 5263 e93f 1ade 2a40 ce51 4540 7349 3940
00000050: 51fb a540 3536 3140 6413 4a40 1fe7 4740
00000060: f7b9 8740 9ac8 1540 21fd 6240 be21 8f40
00000070: f8f7 5c40 5081 5d40 8359 1540 af00 1a40
00000080: 237a 3440 fa95 fb3f 4178 1f40 9940 4040
00000090: 30f2 2040 cca0 e63f 1849 4940 75f0 3c40
000000a0: d8e8 5440 8361 4e40 cd37 9640 02f7 3440
000000b0: 055f 2d40 9bac 2240 a131 2540 2d08 2b40
000000c0: 3c6f 1a40 5530 4740 bf15 0e40 05b7 2340
000000d0: df68 1140 e715 0740 fa86 0840 e834 3740
000000e0: 977c 0540 cbd9 a640 6d00 3640 7cf5 4d40
000000f0: 2cf9 2b40 4055 2340 65ef 4140 9ed1 1540

decoder.2.0.convs.1.weight f4 [64, 64, 3, 3]
0.21107835 -0.096912704 0.017984422 -0.12765105 -0.15562789 -0.013379578 -0.26323485 0.15114754
-0.16001427 -0.34348768 -0.14382792 -0.16934381 0.10818856 -0.086812615 -0.12317512 0.07026947
0.14206325 -0.15289353 0.17605026 0.16314553 -0.051316846 0.16494012 -0.24613576 0.030983308
-0.45893666 0.18991847 0.15974373 0.071865834 -0.118440546 0.0024748845 0.00088085665 0.2197596
-0.040902946 -0.16054827 0.063701645 -0.054830257 0.056401737 0.03417867 -0.028167551 0.07859837
0.16874796 -0.059891295 0.16301583 0.081906825 -0.017364059 -0.026409568 -0.142907 -0.028445974
-0.12809753 0.0809979 -0.048056215 0.22171204 0.18861338 0.06724395 -0.065410316 0.08305103
0.11841898 -0.35781989 -0.03291378 0.076403596 -0.2638307 -0.009069472 -0.107709765 -0.06175116
0.082143135 -0.083370306 -0.18031873 -0.2581907 0.06835383 -0.15510122 0.2918057 -0.1679224
0.19578733 -0.1423728 -0.12041569 -0.045545634 0.0122773275 0.010099044 -0.14848837 -0.06111009
-0.05299277 -0.18779266 0.046413615 -0.04090578 -0.04347332 0.030881684 -0.13110758 -0.2803698
-0.017809307 -0.08074525 0.08491961 -0.08182116 0.0549678 0.08574788 0.008582035 -0.08709675
0.020594765 -0.45136505 -0.17458987 0.02482612 -0.08533576 0.16881119 0.045528263 0.19355612
-0.009355848 0.0116646765 -0.1687937 0.13832891 -0.010788653 0.037848547 0.10088877 -0.32747784
0.13129623 -0.10501571 0.2244484 -0.10344175 0.008591381 0.083756864 -0.24283029 -0.005837702
-0.13622992 0.08292114 0.032924723 -0.31087586 0.13785154 0.06459415 0.009254506 -0.16217916
-0.11070752 -0.07622482 -0.061313547 0.06876534 -0.07492289 -0.070232764 -0.21418032 0.1733805
-0.136512 -0.10234255 0.041136123 0.17075552 0.15955417 -0.32122308 0.09603856 0.119941644
-0.15614033 -0.21388994 -0.022562627 -0.075420454 0.0918362 0.16795082 0.07514228 0.12238927
0.04917302 0.14227314 0.32829958 -0.04807983 0.036093496 0.08709081 -0.08864704 -0.059107307
0.17411041 -0.042554364 -0.08277049 0.079647064 0.25111845 -0.07837213 0.06645924 0.01797323
-0.15323044 0.14951478 -0.09210307 -0.025234418 -0.009656363 -0.027769918 0.22248939 0.092767455
0.15280858 0.07516631 -0.057846468 -0.04625585 0.05970307 -0.33531803 0.09349681 -0.22233792
-0.030363204 -0.15529205 -0.17911257 0.084292464 0.20016764 -0.014846847 -0.21566163 0.032963853
0.13239527 0.14573774 0.124240816 0.22545522 -0.23286617 0.24443689 0.13249035 -0.27858114
-0.04133165 -0.089375064 -0.16105825 -0.09397144 -0.29769877 -0.2490806 -0.08950287 -0.07244329
0.2551152 0.047840167 0.10341093 -0.31329605 -0.16817275 0.10946597 0.0015205077 -0.042878427
-0.1567848 -0.47179487 -0.1587381 0.16707084 -0.20939906 0.065939344 -0.068983115 -0.01734743
0.012599372 0.1237872 -0.01650457 -0.12566875 0.03424431 -0.060301915 -0.004800627 0.032278143
0.10982386 0.12379048 0.037906136 -0.09513307 0.0332053 0.09761037 -0.19409722 -0.01867669
-0.022559566 0.21302028 0.14362347 0.11162432 -0.36583897 -0.23175581 -0.2940614 0.014732321
0.11432436 -0.063931346 -0.25704107 0.12822682 0.02984455 -0.36389983 -0.09763194 0.21108934
00000000: ec24 583e 2b7a c6bd 1154 933c f5b6 02be
00000010: eb5c 1fbe 0436 5bbc b8c6 86be 6cc6 1a3e
00000020: c8da 23be 9edd afbe a047 13be 7768 2dbe
00000030: f791 dd3d d0ca b1bd 3d43 fcbd 71e9 8f3d
00000040: 0779 113e 1f90 1cbe 8546 343e 9f0f 273e
00000050: 9d31 52bd 10e6 283e 030b 7cbe b5d0 fd3c
00000060: bff9 eabe fd79 423e dc93 233e 652e 933d
00000070: f590 f2bd ac31 223b 4ae9 663a a908 613e
00000080: d989 27bd c466 24be 0276 823d b195 60bd
00000090: 8205 673d effe 0b3d a3bf e6bc 2ff8 a03d
000000a0: 44cc 2c3e 9350 75bd 9fed 263e c4be a73d
000000b0: 123f 8ebc e158 d8bc 3656 12be 8807 e9bc
000000c0: 002c 03be 3ae2 a53d 98d6 44bd 7b08 633e
000000d0: de23 413e 32b7 893d d8f5 85bd a916 aa3d
000000e0: a685 f23d 2b34 b7be 9ad0 06bd 7d79 9c3d
000000f0: d114 87be 1f98 14bc f096 dcbd c9ee 7cbd
00000100: a93a a83d 0dbe aabd 79a5 38be 9231 84be
00000110: 18fd 8b3d dbd2 1ebe 8f67 953e daf3 2bbe
00000120: 797c 483e 2dca 11be 809c f6bd 0f8e 3abd
00000130: d826 493c 7676 253c 560d 18be 934e 7abd
00000140: f20e 59bd b84c 40be 341c 3e3d d28c 27bd
00000150: 1411 32bd 96fb fc3c 1141 06be a18c 8fbe
00000160: d3e4 91bc c45d a5bd 55ea ad3d da91 a7bd
00000170: ea25 613d 969c af3d aa9b 0c3c c85f b2bd
00000180: 5ab6 a83c 5219 e7be b0c7 32be 2660 cb3c
00000190: 84c4 aebd d7dc 2c3e d87b 3a3d 9333 463e
000001a0: 4549 19bc 331d 3f3c 41d8 2cbe 18a6 0d3e
000001b0: e4c2 30bc 1407 1b3d c59e ce3d 2dab a7be
000001c0: 8572 063e 7a12 d7bd cdd5 653e 45d9 d3bd
000001d0: ddc2 0c3c b888 ab3d 81a8 78be 324a bfbb
000001e0: db7f 0bbe 8fd2 a93d 13dc 063d 1f2b 9fbe
000001f0: f428 0d3e f049 843d 36a0 173c 4b12 26be
00000200: a0ba e2bd c21b 9cbd ea23 7bbd d8d4 8c3d
00000210: 2c71 99bd 32d6 8fbd 1652 5bbe a88a 313e
00000220: cdc9 0bbe f998 d1bd 5a7e 283d 89da 2e3e
00000230: 2b62 233e 5a77 a4be ddaf c43d f7a3 f53d
00000240: 40e3 1fbe f705 5bbe 42d5 b8bc 0a76 9abd
00000250: 9e14 bc3d 4dfb 2b3e 32e4 993d 3aa7 fa3d
00000260: a669 493d 0db0 113e e216 a83e 5bef 44bd
00000270: c6d6 133d ab5c b23d 948c b5bd 811a 72bd
00000280: 004a 323e 7c4d 2ebd 9383 a9bd 001e a33d
00000290: 9992 803e 9181 a0bd c81b 883d 983c 933c
000002a0: 71e8 1cbe 671a 193e 89a0 bcbd 69b8 cebc
000002b0: b935 1ebc bd7d e3bc 42d4 633e ddfc bd3d
000002c0: da79 1c3e cbf0 993d 6bf0 6cbd c676 3dbd
000002d0: 358b 743d ceae abbe 417b bf3d 8dac 63be
000002e0: 41bc f8bc e104 1fbe 4969 37be 87a1 ac3d
000002f0: bff8 4c3e 3140 73bc 67d6 5cbe 1b05 073d
00000300: a092 073e 463c 153e f871 fe3d bcdd 663e
00000310: 7874 6ebe aa4d 7a3e 8dab 073e 30a2 8ebe
00000320: 604b 29bd 460a b7bd 74ec 24be 1974 c0bd
00000330: f96b 98be fc0e 7fbe 484d b7bd 265d 94bd
00000340: 769e 823e 0df4 433d 1cc9 d33d 5768 a0be
00000350: 7a35 2cbe b22f e03d c64b c73a 4aa1 2fbd
00000360: 328c 20be 198f f1be 3e8c 22be 9e14 2b3e
00000370: b56c 56be 350b 873d 0547 8dbd 331c 8ebc
00000380: 996d 4e3c 2584 fd3d 9834 87bc 4faf 00be
00000390: c343 0c3d 24ff 76bd 944e 9dbb 1636 043d
000003a0: 55eb e03d dd85 fd3d 7743 1b3d 21d5 c2bd
000003b0: 4802 083d f2e7 c73d 6cc1 46be dcff 98bc
000003c0: d7ce b8bc fd21 5a3e 0812 133e 4b9b e43d
000003d0: 3f4f bbbe 6551 6dbe 378f 96be d55f 713c
000003e0: e422 ea3d 70ee 82bd e39a 83be e44d 033e
000003f0: 8f7c f43c 1451 babe 41f3 c7bd ce27 583e

decoder.2.0.convs.1.bias f4 [64]
-0.03699954 0.037083253 0.08271619 -0.038154945 -0.1906913 0.14327753 -0.01917268 0.016984478
0.19028188 -0.044686787 0.025172627 0.121427625 0.07342435 -0.0069274106 -0.2885188 0.118207715
-0.060817614 0.039347827 0.041050892 0.09623039 0.0765217 0.054912724 -0.06227889 -0.09906353
0.13734715 0.18620974 -0.058738444 0.11092122 0.27734697 -0.17237754 0.10078448 0.06576722
0.018812258 -0.078553155 -0.08795655 -0.073351674 -0.10823623 -0.019826138 -0.00058176543 -0.047673058
-0.24346954 0.0035832664 -0.038669724 0.15884455 0.0044490728 0.008404011 0.030710904 -0.20364888
-0.04355867 0.05423526 -0.09366118 0.16374749 0.0026701656 -0.08576287 0.08473213 -0.029130325
-0.1045389 0.09528635 -0.04032878 0.004106673 0.11883759 0.022870572 -0.02588605 -0.094050124
00000000: d48c 17bd 9ce4 173d 1b67 a93d 5c48 1cbd
00000010: 9544 43be 58b7 123e 0610 9dbc 0823 8b3c
00000020: 41d9 423e 7e09 37bd d336 ce3c 0caf f83d
00000030: 815f 963d 55ff e2bb bcb8 93be e316 f23d
00000040: e41b 79bd 302b 213d fb24 283d 7014 c53d
00000050: 69b7 9c3d 2aec 603d 2618 7fbd d2e1 cabd
00000060: bba4 0c3e c4ad 3e3e b997 70bd aa2a e33d
00000070: 6c00 8e3e bd83 30be 1868 ce3d f7b0 863d
00000080: 2a1c 9a3c 7ae0 a0bd 9022 b4bd 6739 96bd
00000090: f5aa ddbd 6d6a a2bc 9e81 18ba d344 43bd
000000a0: 1450 79be 3cd5 6a3b 2564 1ebd 25a8 223e
000000b0: 87c9 913b fab0 093c 6f95 fb3c 5589 50be
000000c0: 936a 32bd cb25 5e3d 6fd1 bfbd 6cad 273e
000000d0: f2fd 2e3b 72a4 afbd 0a88 ad3d b8a2 eebc
000000e0: 7e18 d6bd 7d25 c33d ca2f 25bd 4591 863b
000000f0: 1f61 f33d 115b bb3c fb0e d4bc 5a9d c0bd
