saved_models/vibcreg-encoder-seed-1-DQZWZT-SonyAIBORobotSurface1.ckpt (torch, 898551 bytes, 60 tensors)

encoder.0.block.0.weight f4 [64, 2, 3, 4]
0	0x3ddc34ef	0.10752284
1	0xbda28714	-0.0793592
2	0xbd0e0516	-0.03467282
3	0x3ddafbbe	0.10692547
4	0xbe4663c5	-0.19373997
5	0x3dfd9769	0.12382395
6	0xbd1bbab2	-0.038019843
7	0x3dc01ebb	0.09380861
8	0x3d36d411	0.044635836
9	0xbcfa1dab	-0.030531725
10	0x3d2c1d6e	0.042020254
11	0xbae4f1da	-0.0017467097
12	0x3d862124	0.0654929
13	0xbdbb89b8	-0.09157127
14	0xbba118ee	-0.004916302
15	0xbd03d195	-0.032182295
16	0x3d20a076	0.039215527
17	0xbbaf031b	-0.0053409464
18	0x3e3849bc	0.17996877
19	0x3d8c330b	0.06845673
20	0xbdbe6476	-0.09296505
21	0xbde24d3a	-0.11049886
22	0xbd05df46	-0.032683633
23	0xbddcab82	-0.107749
24	0xbd8305fc	-0.06397626
25	0x3ae3a955	0.001736919
26	0x3dd76b13	0.1051847
27	0x3d88d316	0.066808864
28	0xbe53da58	-0.2068876
29	0x3e035b12	0.1282771
30	0x3d4a589b	0.049400907
31	0x3e47bcb5	0.1950558
32	0x3e128701	0.14309312
33	0xbe477588	-0.19478428
34	0xbe3ad560	-0.18245459
35	0xbdc0ece8	-0.09420186
36	0x3e44480a	0.19168106
37	0xbd2df4c8	-0.04246977
38	0x3da89b4a	0.08232744
39	0xbd81adbc	-0.06331965
40	0x3e525fe6	0.20544395
41	0xbde0bdaa	-0.109736755
42	0x3e1d4778	0.15359294
43	0xbc5c92a6	-0.013462698
44	0xbe01f30e	-0.12690374
45	0x3e02e680	0.12783241
46	0xbe12da01	-0.14340974
47	0x3d8ff6b5	0.070294775
48	0xbd69e3e2	-0.05710209
49	0xbcec8b2a	-0.028874952
50	0xbe631389	-0.22175421
51	0xbdd9462c	-0.10609087
52	0x3dbbebfb	0.09175869
53	0xbd804688	-0.06263453
54	0x3e4a768e	0.19771788
55	0x3e0be37d	0.13660999
56	0xbb0cbd90	-0.0021475293
57	0xbe057e22	-0.13036397
58	0x3df942cc	0.121709436
59	0x3db84769	0.089979954
60	0xbde5ab62	-0.11214329
61	0x3dce8aa3	0.100850366
62	0x3e088b02	0.13334277
63	0x3e44d97d	0.1922359
64	0xbe0b0f88	-0.13580143
65	0xbd3c965f	-0.046041843
66	0x3bcf2cd1	0.006322481
67	0x3d2cec03	0.042217266
68	0xbe210e20	-0.15728045
69	0xbe15173c	-0.14559644
70	0x3de5dbda	0.11223574
71	0xbd69e341	-0.05710149
72	0x3dad9536	0.08475725
73	0x3be40148	0.0069581605
74	0x3d849c05	0.06475071
75	0x3d6dbfdb	0.058044296
76	0x3daa6949	0.08320863
77	0x3de8d355	0.113684334
78	0xbe31ecdc	-0.17375511
79	0x3e101261	0.14069511
80	0xbe16f1b0	-0.14740634
81	0xbe2ddf1e	-0.16979644
82	0x3cac34f2	0.02102134
83	0xbd8c2bc2	-0.06844284
84	0x3dd31b8e	0.1030799
85	0xbded3e91	-0.11584199
86	0xbe3922d6	-0.18079695
87	0x3e037a27	0.12839566
88	0xbcde7655	-0.027156034
89	0x3dfb29b9	0.12263817
90	0x3d80d40a	0.06290443
91	0xbe21f3d2	-0.15815666
92	0x3da8ffc8	0.082519114
93	0x3d6e7051	0.058212582
94	0xbdfb0387	-0.12256532
95	0xbd8a225e	-0.06744836
96	0x3d9c2733	0.07624664
97	0x3d465b71	0.04842705
98	0xbda4c9a7	-0.08046275
99	0xbcd28425	-0.025697777
100	0x3e3c9e4f	0.18419765
101	0xbd4bfec8	-0.049803525
102	0x3e045b65	0.12925489
103	0x3ddb5219	0.10709018
104	0xbe0f852c	-0.14015645
105	0xbe1affa8	-0.15136588
106	0x3e3a3bb0	0.18186831
107	0xbbeb7a4f	-0.007186211
108	0x3de21166	0.11038475
109	0x3d328c58	0.043590873
110	0x3d2406c1	0.040045504
111	0x3e18af35	0.14910586
112	0x3e659a6d	0.2242219
113	0xbe1bad06	-0.15202722
114	0x3c37fb84	0.0112294
115	0x3e34104d	0.17584343
116	0x3e0753e5	0.13215597
117	0x3e042dfb	0.12908165
118	0xbdfb584d	-0.122727014
119	0xbdfccf75	-0.12344257
120	0xbddcde1c	-0.107845515
121	0x3d03e2de	0.03219878
122	0x3e47c796	0.1950973
123	0xbe05a74b	-0.13052098
124	0x3ddc1110	0.10745442
125	0xbe022522	-0.12709478
126	0xbe42f196	-0.1903747
127	0xbd45c4da	-0.048283435
128	0x3e02e222	0.12781575
129	0x3e5691de	0.20954081
130	0xbe0ce020	-0.13757372
131	0x3d4e6a94	0.05039461
132	0x3e42f9c1	0.19040586
133	0x3e205e21	0.15660907
134	0x3e0b0717	0.13576923
135	0x3dfbbf38	0.122923315
136	0x3e05f0be	0.13080117
137	0x3d4d21de	0.050081126
138	0xbe1516ad	-0.14559431
139	0xbe1b056a	-0.15138784
140	0xbdc52cd1	-0.09627689
141	0xbd158798	-0.036506265
142	0xbdfe7793	-0.12425151
143	0x3d7ce9cf	0.061746415
144	0x3d829082	0.06375219
145	0xbd1d7f9d	-0.03845178
146	0x3dae6921	0.085161455
147	0x3d979efd	0.074033715
148	0x3e0d8a73	0.13822345
149	0x3e042634	0.12905198
150	0xbdacdbe6	-0.0844038
151	0x3e3fc864	0.18728787
152	0xbd2d6db1	-0.042340938
153	0x3ac620bb	0.0015115956
154	0xbe3333eb	-0.17500274
155	0xbde6d1a3	-0.11270454
156	0xbdede168	-0.116152585
157	0xbdefadad	-0.11703048
158	0x3e206bb0	0.1566608
159	0xbd84ed6a	-0.06490596
160	0xbe124af1	-0.142864
161	0x3dc53fbb	0.09631296
162	0x3d2a4a6f	0.04157489
163	0x3e091c29	0.13389648
164	0xbe04cba7	-0.12968312
165	0x3cb069ab	0.021534761
166	0xbd808ebe	-0.06277226
167	0xbd7be85e	-0.0615009
168	0xbe2c317d	-0.16815753
169	0xbda8061f	-0.082042925
170	0xbd3cbce4	-0.046078578
171	0x3db49450	0.08817351
172	0x3d061084	0.032730594
173	0x3d58367a	0.052786328
174	0x3e4c72da	0.19965687
175	0x3e4a00ea	0.19726911
176	0x3e12e00e	0.14343283
177	0xbb83b6e1	-0.0040196036
178	0xbe0cbabf	-0.13743113
179	0x3e33e617	0.17568241
180	0xbd6132eb	-0.0549802
181	0xbd6d2bcb	-0.057903092
182	0xbe2ab1f5	-0.16669448
183	0xbc4f510a	-0.012653599
184	0xbe097f69	-0.1342751
185	0x3e49bcb1	0.19700886
186	0xbe3ee485	-0.18641861
187	0xbe31f833	-0.17379837
188	0x3cb46373	0.022020077
189	0xbdd871e6	-0.105685994
190	0x3d8a789e	0.06761287
191	0xbda4a108	-0.08038527
192	0xbdba91b1	-0.0910982
193	0x3c93dc78	0.018049464
194	0x3e230b31	0.15922238
195	0xbe008bf5	-0.1255339
196	0x3dae69d6	0.0851628
197	0x3e18e98f	0.14932846
198	0x3e4e8449	0.2016765
199	0xbe0d600d	-0.13806172
200	0x3d552594	0.05203779
201	0xbe2b72b3	-0.16742973
202	0x3e2bab01	0.16764452
203	0xbda59a74	-0.080861
204	0x3e01a4c0	0.12660503
205	0xbb678598	-0.003532743
206	0xbbc4a869	-0.0060015214
207	0xbb1924ad	-0.0023367808
208	0x3d0a7b4b	0.033808988
209	0x3db8fbdf	0.090324156
210	0x3d2e18d1	0.042504136
211	0x3d51e9c5	0.05124833
212	0xbe337dbf	-0.17528437
213	0x3e246593	0.16054372
214	0x3e340e8e	0.17583677
215	0x3e426fed	0.18988009
216	0x3e204f0d	0.15655155
217	0xbe0c103f	-0.13678072
218	0xbd7ae101	-0.061249737
219	0x3e40df33	0.18835144
220	0xbe244856	-0.16043219
221	0x3e3eb64d	0.1862423
222	0xbe11be93	-0.14232855
223	0xbde72e6f	-0.112881534
224	0x3dd930d6	0.10605018
225	0xbe1b2d89	-0.15154089
226	0xbd882a85	-0.06648735
227	0x3dfd2b9f	0.12361836
228	0x3e25a441	0.16175939
229	0x3e40238f	0.18763565
230	0xbcd49c23	-0.025953358
231	0xbe329369	-0.17439045
232	0x3e4cb475	0.19990714
233	0xbd68f15e	-0.05687081
234	0xbdec853f	-0.11548852
235	0x3d81f306	0.06345181
236	0xbe2fe209	-0.1717607
237	0x3e270c7a	0.16313353
238	0x3e23f7b9	0.16012467
239	0xbe306667	-0.17226563
240	0xbe273136	-0.16327366
241	0xbc2510b7	-0.010074786
242	0x3db2dd8b	0.08733662
243	0xbc0ed82b	-0.008718531
244	0xbdd52e89	-0.104092665
245	0x3bcdb224	0.0062773395
246	0xbe3d8bbf	-0.1851034
247	0xbe02f97f	-0.12790488
248	0xbe0bd9d0	-0.13657308
249	0x3e27b589	0.16377844
250	0x3e326e4d	0.17424889
251	0xbdb234fb	-0.087015115
252	0x3d100785	0.03516342
253	0x3de754e7	0.11295491
254	0x3d24a4b6	0.040196143
255	0xbdda06bb	-0.10645815

encoder.0.block.0.bias f4 [64]
0	0xbd17bf0d	-0.037047435
1	0x3d0ef975	0.03490587
2	0x3e02bb3f	0.12766741
3	0x3db04d32	0.08608474
4	0x3dad79b7	0.08470481
5	0x3d68c839	0.056831572
6	0xbe204f1f	-0.15655182
7	0xbdfc347a	-0.123146966
8	0xbe1b62e6	-0.15174446
9	0x3e0b0ad5	0.13578351
10	0xbe3819a3	-0.1797853
11	0xbe1d516a	-0.15363088
12	0x3e08c8c8	0.13357842
13	0x3df8e3d8	0.12152833
14	0xbe435c6d	-0.19078226
15	0x3df116d6	0.11771934
16	0xbd3c43c2	-0.045963056
17	0x3d34d873	0.044151735
18	0xbe01fdf2	-0.12694529
19	0xbcfe9d52	-0.031080876
20	0x3d4265ec	0.04746048
21	0x3e1e9303	0.15485768
22	0x3dfe8b16	0.12428872
23	0xbde4c4d0	-0.111703515
24	0xbe084f7d	-0.13311572
25	0xbc608998	-0.01370468
26	0x3d81c7d8	0.06336945
27	0x3de68b4f	0.1125704
28	0xbe512aa0	-0.20426416
29	0xbc915b91	-0.017743858
30	0x3bf26e77	0.0073984223
31	0xbdc4fb05	-0.09618191
32	0x3e23af08	0.15984738
33	0xbd611fc3	-0.05496193
34	0xbe47bf65	-0.19506605
35	0xbdfaec0e	-0.12252055
36	0x3c1b1edf	0.009467809
37	0xbe1ad430	-0.15120006
38	0x3d400698	0.04688129
39	0x3e494811	0.19656397
40	0x3c04d907	0.008108384
41	0xbd51e449	-0.0512431
42	0x3e44deb8	0.19225585
43	0x3e1a56cb	0.15072171
44	0x3e08b8f7	0.13351808
45	0x3c790836	0.015199712
46	0x3c27f9e3	0.010252449
47	0xbe235b42	-0.15952781
48	0x3cb83bcf	0.022489456
49	0x3e4ba0f9	0.19885625
50	0x3c33cb89	0.0109738195
51	0xbe38ce5e	-0.18047473
52	0x3de547dd	0.111953475
53	0x3e3c451e	0.18385741
54	0x3e2fa3b4	0.17152292
55	0x3c0e8cab	0.00870053
56	0x3d23d066	0.039993666
57	0x3d0988f3	0.03357787
58	0xbdb35894	-0.08757129
59	0xbcfe954a	-0.031077046
60	0x3e2a1219	0.16608466
61	0x3cb48b57	0.022039099
62	0x3e45ad91	0.19304492
63	0xbe095e93	-0.13414983

encoder.0.block.1.weight f4 [64]
0	0x3f81d8a4	1.0144238
1	0x3f7e88da	0.9942757
2	0x3f7e0063	0.9921934
3	0x3f7f5461	0.99738127
4	0x3f7fa79d	0.9986513
5	0x3f803952	1.0017493
6	0x3f80b013	1.0053734
7	0x3f7cbfc7	0.9873013
8	0x3f793627	0.97348255
9	0x3f8173ac	1.0113425
10	0x3f801a23	1.0007976
11	0x3f7fb689	0.998879
12	0x3f7d6bb6	0.9899248
13	0x3f7c3187	0.9851307
14	0x3f802167	1.0010194
15	0x3f7bf735	0.98424083
16	0x3f828098	1.0195494
17	0x3f839f7e	1.0283048
18	0x3f8215bf	1.0162886
19	0x3f840f16	1.0317104
20	0x3f80bc3a	1.0057442
21	0x3f80541a	1.0025666
22	0x3f810da3	1.0082287
23	0x3f7fa1d5	0.9985631
24	0x3f80e9c0	1.0071335
25	0x3f7dc8c9	0.991345
26	0x3f7e6bc7	0.99383205
27	0x3f7fb106	0.9987949
28	0x3f808081	1.0039216
29	0x3f7d5e0e	0.9897164
30	0x3f7c5618	0.9856887
31	0x3f8135f5	1.0094591
32	0x3f820776	1.0158527
33	0x3f80a877	1.0051411
34	0x3f7f04da	0.9961678
35	0x3f80d753	1.0065712
36	0x3f7df87e	0.99207294
37	0x3f805193	1.0024894
38	0x3f7df44e	0.99200904
39	0x3f7f90b1	0.99830157
40	0x3f7c5fdb	0.98583764
41	0x3f8067db	1.0031694
42	0x3f7dc037	0.9912142
43	0x3f800172	1.0000441
44	0x3f81d0b7	1.014182
45	0x3f79fdf7	0.97653145
46	0x3f7fe42a	0.99957526
47	0x3f7e3830	0.99304485
48	0x3f82a7d0	1.0207462
49	0x3f7daf6b	0.9909579
50	0x3f7ed8be	0.9954947
51	0x3f7fe129	0.9995294
52	0x3f7f5d8b	0.9975211
53	0x3f80cd35	1.0062624
54	0x3f821037	1.0161198
55	0x3f8097bb	1.0046304
56	0x3f7e46bc	0.9932668
57	0x3f7e22e9	0.9927202
58	0x3f811c35	1.0086733
59	0x3f812553	1.0089515
60	0x3f7bd340	0.98369217
61	0x3f80cd3c	1.0062633
62	0x3f800b85	1.0003515
63	0x3f7e194e	0.9925736

encoder.0.block.1.bias f4 [64]
0	0x3c4b3f40	0.012405217
1	0x3d168997	0.03675231
2	0xbc561c6f	-0.013068303
3	0xbd0ee25e	-0.03488385
4	0x3c920980	0.017826796
5	0x3ceaa09e	0.028641041
6	0x3d615a94	0.055018023
7	0xbccca5d3	-0.024981415
8	0x3cd65e37	0.026167972
9	0x3c77dfee	0.015129073
10	0xbc9722e2	-0.01844925
11	0x3b85defb	0.0040854192
12	0x3abfd20b	0.0014634741
13	0xbc5c06a7	-0.01342932
14	0xbc13307c	-0.008983728
15	0xb9d43590	-0.00040475698
16	0x3bc27218	0.005934011
17	0x3cc478ba	0.023983348
18	0x3d6395f6	0.055562936
19	0x3cc51088	0.024055734
20	0x3cb5243d	0.022112006
21	0x3cb0c426	0.021577906
22	0x3d515a6f	0.051111635
23	0x3c43e21c	0.011955764
24	0x3ac3b117	0.0014930096
25	0x3c3fb73a	0.011701399
26	0xbc34bac7	-0.011030859
27	0x3ba072fa	0.004896519
28	0xbc23cc61	-0.009997458
29	0x3c94c448	0.01816
30	0xbd29f7dc	-0.041496143
31	0x3cdce42a	0.026964266
32	0x3c9a7cc9	0.01885833
33	0x3cca5f72	0.024703715
34	0xbba686dc	-0.0050819945
35	0xbc3579c8	-0.011076398
36	0xbc3625f5	-0.011117448
37	0xbc42e64d	-0.011895728
38	0xbb71aba6	-0.0036875992
39	0x3c2ffbc2	0.010741176
40	0xbc104f61	-0.008807988
41	0x3c9ac747	0.018893851
42	0x3c37982d	0.011205715
43	0xbb715ae8	-0.0036827866
44	0x3c6f1bb2	0.014594005
45	0xbb558c88	-0.0032584984
46	0xbc06e56f	-0.008233412
47	0x3d52b36c	0.05144064
48	0xbced8bb5	-0.028997282
49	0xbb907526	-0.0044084964
50	0xbc8bd735	-0.017070392
51	0x3c94042a	0.018068392
52	0xbc8312c5	-0.016000161
53	0xbc546990	-0.012964621
54	0xbca03b57	-0.019559545
55	0x3c6e0261	0.014526934
56	0xbcae05bf	-0.021242974
57	0x3cb50847	0.022098674
58	0xbbc44b9c	-0.0059904587
59	0x3d444936	0.047921382
60	0xbc4e629e	-0.012596754
61	0xbc7850d8	-0.015155993
62	0xbc519b81	-0.012793423
63	0x3bf2f030	0.0074138865

encoder.0.block.1.running_mean f4 [64]
0	0xbd1ed553	-0.03877766
1	0x3ca05aff	0.01957464
2	0x3e03a8ef	0.12857412
3	0x3dc95134	0.098299414
4	0x3dc0cf36	0.09414522
5	0x3d442789	0.047889266
6	0xbe1c4499	-0.15260543
7	0xbe0d276d	-0.13784571
8	0xbe1ffc49	-0.15623583
9	0x3e0a18fe	0.13486096
10	0xbe4a3c87	-0.19749652
11	0xbe1d6793	-0.15371542
12	0x3e14734a	0.14497104
13	0x3dec9f12	0.11553778
14	0xbe576831	-0.2103584
15	0x3dd9319a	0.10605164
16	0xbd57cda8	-0.052686363
17	0x3d430217	0.047609415
18	0xbdf85e3a	-0.12127347
19	0xbd2abb16	-0.041682325
20	0x3d3ec7db	0.046577316
21	0x3e286186	0.16443452
22	0x3ded5fca	0.11590536
23	0xbdc20cad	-0.09475074
24	0xbe0a7a87	-0.13523303
25	0xbca0fec1	-0.019652726
26	0x3d971904	0.07377818
27	0x3dd219c8	0.10258824
28	0xbe5b9700	-0.2144432
29	0xbca7683b	-0.020435443
30	0x3d14e61d	0.036352266
31	0xbdd5e728	-0.1044448
32	0x3e22b23a	0.158883
33	0xbd517d6e	-0.05114501
34	0xbe327817	-0.17428623
35	0xbdea3c90	-0.11437333
36	0x3c87a54a	0.016558308
37	0xbe1478e0	-0.14499235
38	0x3d62cc08	0.05537036
39	0x3e39eb44	0.18156153
40	0x3c05d3e3	0.0081681935
41	0xbd877548	-0.066141665
42	0x3e3e9e32	0.18615034
43	0x3e25c978	0.16190135
44	0x3e0e3b02	0.13889697
45	0x3d1ad79e	0.037803285
46	0x3c305896	0.010763308
47	0xbe3580cf	-0.17724918
48	0x3cc89ebf	0.024489759
49	0x3e510262	0.20411065
50	0x3cd7d459	0.026346372
51	0xbe3add46	-0.18248472
52	0x3dc1a593	0.09455409
53	0x3e410bb6	0.18852124
54	0x3e22c7a4	0.1589647
55	0x39b99091	0.0003539366
56	0x3ce46f99	0.027885245
57	0x3d18ecdf	0.037335273
58	0xbdae4a39	-0.085102506
59	0xbcdb313b	-0.026756873
60	0x3e3fadb1	0.18718602
61	0x3ba497c1	0.0050229733
62	0x3e3f4c11	0.18681361
63	0xbe0ba836	-0.13638386

encoder.0.block.1.running_var f4 [64]
0	0x3ddc49c6	0.10756259
1	0x3f61d7d8	0.88219976
2	0x3f52a316	0.822801
3	0x3f4f5a74	0.80997396
4	0x3f1a0383	0.6016161
5	0x3f1e5a41	0.61856467
6	0x3f4abf2e	0.7919797
7	0x3f43df09	0.765122
8	0x3e86f506	0.26358813
9	0x3eabac90	0.33530092
10	0x3f462a70	0.77408504
11	0x3dda9fa3	0.106749795
12	0x3ea2e8fa	0.31818372
13	0x3f2c80e5	0.6738418
14	0x3f24034f	0.6406755
15	0x3f3a4bce	0.7277192
16	0x3e710cc9	0.23540033
17	0x3e66634e	0.22498819
18	0x3edd7025	0.43249622
19	0x3f02679d	0.5093935
20	0x3e2b65d8	0.16738069
21	0x3f764407	0.9619755
22	0x3ecef9a4	0.40424836
23	0x3f024c3f	0.5089759
24	0x3ea060bb	0.313238
25	0x3f52973a	0.82262003
26	0x3f9941f8	1.1973257
27	0x3fd66a85	1.6751257
28	0x3eef4147	0.4672949
29	0x3ee71827	0.45135614
30	0x3f80a82d	1.0051323
31	0x3f806532	1.0030882
32	0x3ee221a2	0.44166285
33	0x3ef8955a	0.48551446
34	0x3fe21a89	1.7664348
35	0x3f00ddd1	0.50338465
36	0x3e5df6f8	0.21676242
37	0x3ef51e96	0.47874898
38	0x3fad687d	1.3547512
39	0x3f29d951	0.66347224
40	0x3fb6ea1b	1.4290193
41	0x3f26a8b7	0.6510119
42	0x3f36be25	0.7138389
43	0x3f04fc82	0.51947796
44	0x3e2cbe7b	0.16869538
45	0x3faf4522	1.3692973
46	0x3f6ce938	0.92543364
47	0x3ee1b656	0.44084424
48	0x3f07e0d4	0.53077435
49	0x3f03c917	0.51478714
50	0x3fa0f90e	1.2576005
51	0x3ec2c270	0.3803897
52	0x3ecf4e7e	0.40489572
53	0x3f00e9f6	0.50356996
54	0x3ea35e64	0.31907952
55	0x3eb51dc9	0.35374287
56	0x3f0711db	0.5276162
57	0x3f48753f	0.78303903
58	0x3e34f1f0	0.17670417
59	0x3ddc07e6	0.10743694
60	0x3f0fa609	0.56112725
61	0x3f821653	1.0163063
62	0x3eed9ddd	0.46409503
63	0x3f51d7b1	0.81969744

encoder.1.block.0.weight f4 [64, 64, 3, 4]
0	0xbd14347b	-0.03618286
1	0x3bc10c90	0.00589139
2	0xbc4cb6e1	-0.012494774
3	0x3d0ca20c	0.034334227
4	0x3d2874a8	0.041126877
5	0xbd2ae4e3	-0.04172219
6	0x3cb307e1	0.021854343
7	0x3d1de403	0.038547527
8	0xbc9a13fa	-0.018808354
9	0x399ee5a7	0.00030307213
10	0x3d23665f	0.03989255
11	0xbcdc74e5	-0.026911208
12	0xbbd259e6	-0.006419408
13	0xbc60436b	-0.013687949
14	0x3d1c28be	0.038124792
15	0x3c40e54e	0.0117734205
16	0x3c9dc300	0.019258022
17	0x3cfec841	0.031101348
18	0xbc3a48f1	-0.01136993
19	0xbd2806ef	-0.041022237
20	0x3cbf914d	0.023384714
21	0x39e0563e	0.00042788865
22	0x3cc38589	0.023867385
23	0xbc658e48	-0.014010973
24	0xbc16537b	-0.009175177
25	0xbc93c21f	-0.0180369
26	0x3c144dd4	0.009051759
27	0xbb513f1e	-0.003192849
28	0x3ba04f5a	0.004892272
29	0x3c79017a	0.015198106
30	0x3c440c55	0.011965831
31	0xbcd1441e	-0.025545176
32	0xbbb8eef0	-0.005643718
33	0xbc74d483	-0.014943245
34	0xbd43bfd9	-0.047790382
35	0x3c928257	0.017884417
36	0x3c62ba33	0.013838339
37	0x3d179e04	0.03701593
38	0xbd097c55	-0.033565838
39	0x3cced825	0.02524955
40	0xbc724362	-0.014786573
41	0x3c9c6a8c	0.019093774
42	0x3cb29485	0.021799335
43	0x3b27095f	0.0025487763
44	0xbc9f570d	-0.019450689
45	0x3bd82df2	0.006597274
46	0xbc857f87	-0.016296161
47	0x3c969914	0.01838354
48	0x3c8ceaca	0.0172018
49	0x3b7d0b99	0.003861165
50	0xbcd4d634	-0.025981046
51	0x3d039e53	0.03213341
52	0x3cd822a4	0.026383705
53	0xbc4c33e0	-0.01246354
54	0x3c9888b4	0.018619873
55	0xbc2e7904	-0.01064897
56	0x3c040bc2	0.008059444
57	0xbd1fc4e6	-0.039006136
58	0xbcbe2877	-0.023212655
59	0x3bdb2844	0.0066881496
60	0xbcc50116	-0.02404837
61	0xbc5f53f1	-0.013630853
62	0x3d099037	0.0335848
63	0xbc558ef2	-0.013034569
64	0xbc78410b	-0.015152226
65	0xbc5a5b4b	-0.01332743
66	0xbce7fd9d	-0.028319174
67	0x3c8e4f35	0.017371753
68	0x3ccf6b5f	0.025319753
69	0x3d218f57	0.03944334
70	0xbc825f12	-0.015914474
71	0xbc50d24e	-0.012745453
72	0xbd008601	-0.031377796
73	0xbb1ac68c	-0.0023616878
74	0xba3c39df	-0.00071802543
75	0xbc468f43	-0.012119117
76	0x3cd03106	0.025414001
77	0x3ced9fa8	0.029006794
78	0xbaf8e3e8	-0.001898882
79	0xbaec1e7b	-0.0018014455
80	0xbc4b4a70	-0.012407884
81	0xbc32980f	-0.010900511
82	0x3c06d8fb	0.008230443
83	0x3c38adcc	0.011271905
84	0xbd04218e	-0.032258563
85	0x3cdc3fe4	0.026885934
86	0xbcb6dd4f	-0.022322325
87	0xbd1d55ee	-0.038412027
88	0x3d39ebda	0.04539094
89	0xba1d4a53	-0.000600015
90	0xbc8e9776	-0.017406207
91	0xba7c9e91	-0.00096366653
92	0xbcb62a9e	-0.022237118
93	0xbd312c88	-0.04325536
94	0xbcaff7df	-0.021480499
95	0xbc0e9e71	-0.008704768
96	0x3b19d27c	0.0023471406
97	0xbcbbbe69	-0.022917943
98	0xbce4374b	-0.027858397
99	0x3c41454f	0.01179631
100	0xbce953f1	-0.02848241
101	0xbbc7ada2	-0.0060936967
102	0x3cdc7543	0.026911383
103	0xbc8369df	-0.016041694
104	0xbd002132	-0.031281658
105	0x3b9933c5	0.004675361
106	0x3cdbcc77	0.026830895
107	0xbccd1bf1	-0.025037738
108	0xbd1292bf	-0.03578448
109	0x3c8657f4	0.016399361
110	0x3c942569	0.018084245
111	0xb92d7125	-0.00016540715
112	0x3d117358	0.03551039
113	0xbc06c080	-0.0082246065
114	0xbcabcd37	-0.020971878
115	0xbc9059eb	-0.017621001
116	0x3cd7d22e	0.026345339
117	0x3bb547e9	0.005532254
118	0x3c906a21	0.017628731
119	0x3d22a1d3	0.03970511
120	0x3d0d2628	0.034460217
121	0xbb730899	-0.0037083982
122	0x3cd44ff7	0.025917036
123	0xbd2ca48b	-0.042149108
124	0x3b368185	0.0027848196
125	0xbc016724	-0.007898126
126	0xbb136f36	-0.0022496707
127	0xbba86ff5	-0.0051402994
128	0x3b73e7f2	0.0037217108
129	0xbc87ac15	-0.016561547
130	0xbc933d1d	-0.017973477
131	0x3caa1306	0.020761024
132	0x3afa905b	0.0019116508
133	0xbc616d24	-0.013758931
134	0x3ca6def9	0.020369994
135	0xbc6e7d58	-0.0145562515
136	0xbd354091	-0.04425103
137	0xbd398ae4	-0.045298472
138	0x3c969d53	0.018385565
139	0xbd54f4f4	-0.051991418
140	0x3d40167d	0.046896446
141	0xbc8c6a79	-0.017140614
142	0xbd6514bd	-0.05592798
143	0x3d230da0	0.039807916
144	0xbcb9c32a	-0.02267607
145	0x3ad628f9	0.0016339115
146	0xbbb104cc	-0.005402183
147	0x3d21a736	0.039466105
148	0x3c390a7f	0.011294006
149	0x3caccbb9	0.021093236
150	0xbc2059be	-0.009787021
151	0xbb6f629d	-0.0036527284
152	0x3b6062db	0.003423861
153	0xbcf338c9	-0.029690163
154	0xbafcba10	-0.0019281525
155	0xbc9cee9a	-0.019156743
156	0xbc9b4e11	-0.018958123
157	0x3c5fb433	0.013653803
158	0xbd0ef6ab	-0.03490321
159	0x3c8be24a	0.017075676
160	0x3cd08974	0.025456168
161	0xbce5c10c	-0.028046153
162	0xbcb543f7	-0.022127135
163	0x3cd2d392	0.02573565
164	0xbc61ed14	-0.013789434
165	0xbcfafd9d	-0.03063851
166	0xbd55102e	-0.052017383
167	0x3b9540a9	0.004554827
168	0x3c43c4e9	0.0119488025
169	0x3cc22cd9	0.023703026
170	0x3d0694e4	0.032856837
171	0x3c013cf9	0.007888072
172	0xba92f1e0	-0.0011211
173	0x3cc0d10b	0.02353718
174	0xbc9f767f	-0.019465683
175	0xbb286f59	-0.0025701134
176	0x3d463156	0.048386894
177	0x3ad6eb2f	0.0016396994
178	0xbaeb814a	-0.0017967608
179	0x3ae89b03	0.0017746392
180	0x3b9f4e41	0.0048616235
181	0xbc373cee	-0.01118396
182	0xbd2b10f7	-0.041764226
183	0x3c9b60ed	0.018967116
184	0x3ca21ee1	0.019790115
185	0xbd14464c	-0.036199853
186	0xbcf49bc3	-0.02985943
187	0x3c2cfc81	0.0105582485
188	0x3c92b81d	0.017910058
189	0xb9be98c7	-0.00036353452
190	0xbca94b72	-0.020665858
191	0xba827746	-0.0009953759
192	0x3aa0374a	0.0012223509
193	0x3d04ea12	0.03244979
194	0x3c6394d5	0.013890465
195	0x3ac464c1	0.001498364
196	0x3b998d8e	0.004686064
197	0x3adc3d23	0.0016802888
198	0x3ce48f84	0.027900465
199	0x3c592406	0.013253218
200	0x3d04d0ae	0.032425575
201	0x3c75146a	0.01495848
202	0xbc112bca	-0.008860538
203	0x3cc73af3	0.024320101
204	0xbc9257e9	-0.017864184
205	0x3c06955f	0.008214324
206	0xbcc07ac6	-0.023496043
207	0x3c9802e2	0.018556062
208	0xbc0cbc20	-0.008589774
209	0x3c10e7ed	0.008844358
210	0xbc1c408c	-0.009536874
211	0xbaf23355	-0.0018478433
212	0x3c88f6da	0.01671927
213	0xbd5097d4	-0.050926045
214	0x3d7348cf	0.059395608
215	0xbd426ac7	-0.047465112
216	0xbb757f29	-0.0037459827
217	0x3c307537	0.010770134
218	0x3c985ff2	0.018600438
219	0x3c67389d	0.014112619
220	0xbc85f42f	-0.016351787
221	0x3cb6f3da	0.022333074
222	0xbca9f5a6	-0.020747017
223	0x3c2475b4	0.010037828
224	0x3c1a49a4	0.009416971
225	0x3c928c33	0.017889118
226	0xbd0ff2ce	-0.035143666
227	0x3d27eb96	0.040996157
228	0x3d010e22	0.03150762
229	0xbcc37781	-0.023860695
230	0x3c0f006b	0.008728127
231	0xbc8c03f4	-0.017091729
232	0xbc15989b	-0.009130622
233	0x3d391a3b	0.04519103
234	0xbc64d4ad	-0.0139667215
235	0x3a8f614e	0.0010939033
236	0x3ced0480	0.02893281
237	0x3cc6cc52	0.02426735
238	0xbce4a1f0	-0.027909249
239	0xbd2e78d2	-0.042595692
240	0x3c2e7c2f	0.010649725
241	0xbd4a93b2	-0.04945726
242	0xbbb45935	-0.0055037984
243	0xbce1268e	-0.027484205
244	0xbc343180	-0.01099813
245	0x3d1b32c8	0.037890226
246	0xbcf81e8f	-0.030288009
247	0xbc33845f	-0.010956853
248	0xbb93ace3	-0.0045066937
249	0x3d2c9f19	0.042143915
250	0x3d116a59	0.03550181
251	0xbd3fb814	-0.04680641
252	0x3cc95d3c	0.02458059
253	0x3c634648	0.013871737
254	0xbd204f3a	-0.039138056
255	0xbaf75482	-0.001886979

encoder.1.block.0.bias f4 [64]
0	0xbcd31a2f	-0.025769321
1	0x3ca9457f	0.020663021
2	0xbcf8dec6	-0.030379664
3	0x3cadc7e1	0.021213474
4	0xbc473f7c	-0.012161132
5	0x3c666644	0.014062468
6	0x3b9a8f8c	0.004716819
7	0x3d0e1d21	0.03469575
8	0x3c5e3307	0.013561971
9	0xbb3a526d	-0.0028430477
10	0x3d03672f	0.032080825
11	0xbcecf8d3	-0.028927242
12	0x3ba2c4ba	0.0049672993
13	0x3c2b6a31	0.01046233
14	0xbce3d8a4	-0.027813263
15	0xbcaa4a3e	-0.020787355
16	0xbc89c400	-0.016817093
17	0xbc7e51ec	-0.015522461
18	0xbab893e6	-0.0014082163
19	0xbca2bd86	-0.019865762
20	0x3d0aee67	0.033918764
21	0xbad2a296	-0.0016070183
22	0x3d0a12ea	0.033709444
23	0x3c1d3a31	0.009596393
24	0xbb23d004	-0.0024995813
25	0x3a9d174e	0.0011985095
26	0xbcaad536	-0.02085362
27	0xbcb3920f	-0.021920232
28	0x3c62c086	0.0138398465
29	0xbba62547	-0.005070362
30	0x3b4c747c	0.003119736
31	0xbba0b1b0	-0.0049039945
32	0x3ccffc31	0.025388809
33	0xbd1493cf	-0.036273774
34	0xbcc1d42d	-0.023660744
35	0xbc8add28	-0.016951159
36	0xbc4deda5	-0.012568866
37	0x3cdd7123	0.027031487
38	0x3cc9d7f3	0.024639105
39	0xbce59bc5	-0.028028378
40	0xbbf199c5	-0.007373067
41	0x3d020547	0.031743314
42	0xbcd09936	-0.025463682
43	0x3b21fb28	0.0024716351
44	0x3c6d8651	0.014497356
45	0x3c96e38b	0.018419048
46	0x3cdb4383	0.02676559
47	0x3cc0d751	0.02354017
48	0x3c01d95e	0.0079253595
49	0xbd107836	-0.035270892
50	0xbc7eb35c	-0.015545692
51	0xbb985c12	-0.0046496475
52	0xbcd540e0	-0.026031911
53	0xbc8fbd4a	-0.017546315
54	0x3be0257a	0.006840405
55	0xbc602643	-0.013680997
56	0x3be5f000	0.0070171356
57	0x3c5e2f75	0.013561119
58	0x3c8fb8e2	0.017544214
59	0xbcd427d1	-0.025897892
60	0x3d0272bf	0.03184771
61	0x3c7a69c4	0.015284006
62	0x3b4853df	0.003056757
63	0xbc2d21eb	-0.010567169

encoder.1.block.1.weight f4 [64]
0	0x3f7a6210	0.9780588
1	0x3f7c2526	0.98494184
2	0x3f7117af	0.94176763
3	0x3f7f8656	0.99814355
4	0x3f7dbfab	0.9912059
5	0x3f7caf87	0.98705333
6	0x3f7ce440	0.9878578
7	0x3f791485	0.97296935
8	0x3f7629bf	0.9615745
9	0x3f7d40c9	0.9892698
10	0x3f78d032	0.9719268
11	0x3f7a3d50	0.97749805
12	0x3f776ad8	0.96647406
13	0x3f7b3c99	0.9813934
14	0x3f7c0578	0.98445845
15	0x3f76ef9d	0.9645937
16	0x3f7cd21f	0.9875812
17	0x3f7d49c7	0.989407
18	0x3f7bd822	0.9837667
19	0x3f75b917	0.9598555
20	0x3f7f08e5	0.99622947
21	0x3f7e89cd	0.9942902
22	0x3f7d52fe	0.9895476
23	0x3f7d8066	0.99024045
24	0x3f7f493f	0.9972114
25	0x3f7adac1	0.9799004
26	0x3f7b027a	0.98050654
27	0x3f7a5ad5	0.9779485
28	0x3f745a4c	0.9545028
29	0x3f7d39e8	0.9891648
30	0x3f7a5888	0.9779134
31	0x3f723bbf	0.94622415
32	0x3f74c290	0.9560938
33	0x3f7bd457	0.9837088
34	0x3f7ef67d	0.9959486
35	0x3f763eae	0.9618939
36	0x3f7b4afd	0.981613
37	0x3f807f24	1.00388
38	0x3f8122b9	1.0088722
39	0x3f7d6b8d	0.98992234
40	0x3f7f5d97	0.9975218
41	0x3f80239e	1.001087
42	0x3f7ef93a	0.9959904
43	0x3f810ccb	1.0082029
44	0x3f7ea3aa	0.9946848
45	0x3f7698d0	0.96326923
46	0x3f7b265c	0.98105407
47	0x3f7ec5d5	0.9952062
48	0x3f7f5e5d	0.9975336
49	0x3f7c90ff	0.98658746
50	0x3f81283c	1.0090404
51	0x3f7e7b4a	0.99406874
52	0x3f7b66fe	0.9820403
53	0x3f7b32d7	0.9812445
54	0x3f7a5b35	0.9779542
55	0x3f80f1c8	1.0073786
56	0x3f81f6b8	1.0153418
57	0x3f744104	0.95411706
58	0x3f7b3bea	0.98138297
59	0x3f82bfa8	1.0214739
60	0x3f7b9db4	0.9828751
61	0x3f7ad24c	0.9797714
62	0x3f7ed3e4	0.9954207
63	0x3f7b233d	0.98100644

encoder.1.block.1.bias f4 [64]
0	0xbcdd3353	-0.027002012
1	0xbc91c7a7	-0.017795397
2	0xbd419411	-0.047260348
3	0xbcfad77b	-0.030620327
4	0xbc3fc9fe	-0.0117058735
5	0x3b4467b6	0.0029969043
6	0xbc91f69e	-0.017817792
7	0xbd3854e0	-0.045002818
8	0xbca5daee	-0.020245995
9	0x3cb721cb	0.02235498
10	0xba73c74d	-0.00092994125
11	0xbd8c1468	-0.0683983
12	0xbd05286c	-0.032509252
13	0xbca182aa	-0.019715626
14	0xbc315fcd	-0.010826063
15	0xbd277a6b	-0.04088823
16	0x3d1f4224	0.038881436
17	0xbd6330a3	-0.055466305
18	0xbc8266dc	-0.015918188
19	0xbd8be417	-0.06830614
20	0xbb71fb58	-0.0036923494
21	0x3c75df8e	0.015006913
22	0xbcdc6fd7	-0.026908798
23	0xbaf63ae0	-0.0018785857
24	0xbb93e620	-0.004513517
25	0x3caeaaf2	0.021321747
26	0xbcc69f8a	-0.024245996
27	0xbcf774b8	-0.030207023
28	0xbd60751f	-0.054799195
29	0xbd075026	-0.03303542
30	0xbd0ad6de	-0.03389632
31	0xbd874b21	-0.066061266
32	0x3b9bbae4	0.0047525037
33	0xbbc51bbe	-0.00601527
34	0xbb7998ad	-0.0038085387
35	0xbd2c2fbf	-0.04203772
36	0xbce6f68f	-0.02819374
37	0xbbf65e2c	-0.0075185504
38	0x3a96d881	0.0011508615
39	0xbc887cc6	-0.01666106
40	0xbd051cbb	-0.032498103
41	0xbd52746f	-0.05138057
42	0xbb7a822a	-0.0038224556
43	0x3c5feace	0.013666822
44	0x3c93a21f	0.018021641
45	0xbc5d01f4	-0.013489235
46	0xbc73cbba	-0.014880115
47	0xbcb21566	-0.02173872
48	0xbd38bc53	-0.045101475
49	0xbc421a86	-0.011847144
50	0xbd37af9d	-0.044845212
51	0xbca3409c	-0.01992827
52	0xbc979796	-0.018504899
53	0x3bbfff21	0.005859271
54	0xbccda521	-0.025103154
55	0xbc376421	-0.011193306
56	0xbcec0a6b	-0.028813561
57	0xbd4204aa	-0.04736773
58	0x3d37cade	0.044871204
59	0xbba00974	-0.0048839394
60	0xbb13d3d4	-0.002255668
61	0xbd10e575	-0.035375077
62	0x3d320fdb	0.043472152
63	0xbc14983a	-0.009069497

encoder.1.block.1.running_mean f4 [64]
0	0xbe4d6536	-0.2005814
1	0xbdc09397	-0.094031505
2	0xbf563db0	-0.8368788
3	0xbdce462f	-0.1007198
4	0x3ddb746c	0.10715565
5	0xbea22fa7	-0.3167698
6	0xbed5e244	-0.4177419
7	0x3ca87e5d	0.020568067
8	0xbf77789a	-0.966684
9	0x3e3c7251	0.18402983
10	0xbe8eb9a2	-0.27876002
11	0xbf4578f4	-0.77137685
12	0xbf8cc964	-1.099896
13	0xbf42f9f8	-0.7616267
14	0x3ece1a3d	0.40254393
15	0x3dc0c697	0.09412878
16	0x3f27788e	0.65418327
17	0xbe6c831a	-0.23096886
18	0x3df7417c	0.12073037
19	0xbea7215b	-0.32642636
20	0x3d27546a	0.040851988
21	0x3eb21d27	0.34787866
22	0xbf60b98d	-0.8778313
23	0xbf97c926	-1.1858261
24	0xbf01e253	-0.5073597
25	0x3eae16dd	0.34001818
26	0xbf8b30ca	-1.0874264
27	0xbf10aad8	-0.56510687
28	0xbde4c850	-0.11171019
29	0x3e753d31	0.23949124
30	0xbf2516a2	-0.6448766
31	0xbdb93eec	-0.090452045
32	0xbd776f61	-0.060408954
33	0x3c28a269	0.010292628
34	0xbea9bf29	-0.33153656
35	0xbb837705	-0.004011991
36	0x3d79db63	0.06100024
37	0xbf4e21df	-0.80520433
38	0x3d7d06b4	0.06177397
39	0xbee0b98a	-0.43891555
40	0xbcd507e9	-0.026004748
41	0x3d8f45b1	0.069957145
42	0xbeac51f4	-0.33656275
43	0x3e81307e	0.2523231
44	0x3eb07957	0.34467575
45	0xbfaf0c39	-1.3675605
46	0x3f29f4a0	0.66388893
47	0xbea3e16a	-0.32007915
48	0xbe545549	-0.20735659
49	0xbcde1fa1	-0.027114691
50	0xbe4bb019	-0.19891395
51	0x3d42c565	0.04755153
52	0xbe615743	-0.22005944
53	0x3d0153d2	0.031574078
54	0x3dad372f	0.08457791
55	0xbdf43afd	-0.119253136
56	0xbedc542d	-0.4303297
57	0xbe861074	-0.26184428
58	0x3f443ab3	0.7665207
59	0xbf2537cb	-0.6453826
60	0x3d8e2875	0.0694131
61	0xbeeb9866	-0.46014708
62	0xbe5822ad	-0.21106978
63	0xbea299da	-0.31758004

encoder.1.block.1.running_var f4 [64]
0	0x3f63988e	0.88904655
1	0x3f447bfc	0.76751685
2	0x3fa00c05	1.2503668
3	0x3edd441d	0.4321603
4	0x3f1417be	0.5784873
5	0x3f4e7378	0.8064494
6	0x3f44ae5c	0.7682855
7	0x3f56ae21	0.8385945
8	0x3f96f3e6	1.1793182
9	0x3f448b86	0.76775396
10	0x3f8ee53b	1.1163706
11	0x3f68de16	0.90963876
12	0x3f81338f	1.009386
13	0x3f1ab61e	0.6043414
14	0x3f97ab0b	1.1849073
15	0x3ed7e3bf	0.42165944
16	0x3f42bf5c	0.7607324
17	0x3f1bb7c4	0.6082728
18	0x3f766833	0.96252745
19	0x3efc0251	0.49220517
20	0x3f191764	0.59801316
21	0x3f65168e	0.8948754
22	0x3f6b2946	0.91859853
23	0x3ffbb065	1.9663206
24	0x3ecafcee	0.39646095
25	0x3f5a976b	0.85387295
26	0x3f848fc2	1.0356371
27	0x3f8ffee5	1.1249663
28	0x3f818ea2	1.0121653
29	0x3f6739ea	0.90322745
30	0x3f78f23e	0.9724463
31	0x3f24f134	0.64430547
32	0x3f9862e3	1.1905178
33	0x3f628963	0.88490885
34	0x3f417e0a	0.75582945
35	0x3f032602	0.5122987
36	0x3f1a3222	0.60232747
37	0x3f7a70ca	0.9782835
38	0x3eded8af	0.4352469
39	0x3f10945d	0.56476384
40	0x3f67fe21	0.90622145
41	0x3eda1cb7	0.42600033
42	0x3fa5cac1	1.29525
43	0x3f157ab2	0.58390343
44	0x3f11498a	0.56752837
45	0x3ff7c5c8	1.9357233
46	0x3f58a181	0.84621435
47	0x3f354b3f	0.7081794
48	0x3f0d30d2	0.5515262
49	0x3f45fe27	0.7734093
50	0x3ef4c82e	0.47808975
51	0x3f368075	0.7128976
52	0x3f1c37e3	0.61022776
53	0x3fc8d598	1.5690184
54	0x3f27be04	0.65524316
55	0x3f263f50	0.6494036
56	0x3ef231f7	0.47303745
57	0x3f0a70c1	0.540783
58	0x3f665b98	0.8998351
59	0x3f8398cc	1.0281005
60	0x3ee87030	0.45398092
61	0x3f948eb3	1.1606048
62	0x3fc78817	1.5588406
63	0x3f6249b6	0.88393724

encoder.2.0.convs.1.weight f4 [64, 64, 3, 3]
0	0xbc7aa14d	-0.015297246
1	0x3baca107	0.0052682194
2	0xbb8f9400	-0.0043816566
3	0xbd650a54	-0.055918053
4	0xbaaec72b	-0.0013334503
5	0xbcfc9418	-0.030832335
6	0xbd43b64b	-0.04778127
7	0x3d2713b9	0.040790293
8	0xbc055436	-0.008137753
9	0x3c48012b	0.01220731
10	0xba2fbabc	-0.0006703546
11	0xbccfd4cf	-0.02537003
12	0x3ccb4a9d	0.024815852
13	0x3c2ace39	0.010425144
14	0xbc9ae771	-0.018909188
15	0x3d877a33	0.066151045
16	0x3cb3a806	0.021930706
17	0x3d391770	0.045188367
18	0xbd7d2278	-0.06180045
19	0xba810029	-0.0009841967
20	0x3c903d26	0.017607283
21	0x3afb4a16	0.001917186
22	0x3bde0aff	0.006776213
23	0xbc0abf5c	-0.008468475
24	0x3d11638f	0.035495337
25	0x3d2bf4a1	0.041981343
26	0xbd55e408	-0.05221942
27	0xba8f229b	-0.0010920347
28	0xbd090418	-0.03345117
29	0xbc86afec	-0.016441308
30	0x3d06ead3	0.03293879
31	0x3c290e44	0.010318343
32	0xbd1ecf70	-0.038772047
33	0x3c22e9ae	0.009943409
34	0xbd00b69f	-0.03142416
35	0x3d4424e5	0.047886748
36	0x3c45d6c0	0.012075126
37	0x3ce911de	0.028450903
38	0x3aa013c4	0.0012212922
39	0xbc207dc8	-0.009795614
40	0xbadb88be	-0.0016749126
41	0xbb561ca9	-0.0032670891
42	0x3c813143	0.01577056
43	0x3c0c2fc5	0.008556311
44	0x3ccb6a6d	0.024831021
45	0xbcc1d335	-0.023660282
46	0x3d0cdd25	0.034390587
47	0x3c6e4173	0.0145419715
48	0xbcc3220f	-0.023819951
49	0x3b3f2566	0.0029166578
50	0xbc677d92	-0.014129059
51	0xbcec0640	-0.028811574
52	0x3c84433c	0.016145341
53	0x3d459d8b	0.048245948
54	0xbbbd13fb	-0.005770204
55	0x3d1f30a7	0.038864758
56	0x3cbf9e4f	0.023390917
57	0xbc10ff85	-0.008849983
58	0xbd0559a6	-0.0325562
59	0xbd2ea088	-0.042633563
60	0x3cd99338	0.026559457
61	0x3c866e1c	0.016409926
62	0xbcf611b2	-0.030037735
63	0xbca4ab47	-0.020101203
64	0x3ce18e1f	0.027533589
65	0xbd348e89	-0.044081245
66	0x3d14bfb5	0.03631564
67	0x3b8fc9fa	0.004388091
68	0xbb4fe693	-0.0031723126
69	0xbc512018	-0.012763999
70	0xbbb6f5ac	-0.0055834856
71	0xbcdfa2f5	-0.027299384
72	0x3cad8354	0.021180786
73	0x3cfad788	0.030620351
74	0xbbd706ba	-0.006562081
75	0xbcbaa96c	-0.022785865
76	0x3cf5c161	0.029999437
77	0xbaa42330	-0.0012522694
78	0xbd68aadd	-0.056803573
79	0xbd0f9b36	-0.03506013
80	0x3bfc0f2b	0.007692238
81	0x3c8d1298	0.01722078
82	0x3ca04fa2	0.019569222
83	0x3d0df612	0.0346585
84	0x3c936f2b	0.017997345
85	0xbd35368c	-0.044241473
86	0x3d26b8f6	0.040703736
87	0x3b4da670	0.0031379722
88	0xbd753d06	-0.05987265
89	0x3bafad3e	0.0053612282
90	0x3c05fab9	0.008177453
91	0xbcbda81c	-0.02315145
92	0xbd4d840e	-0.050174765
93	0xbbc5b27c	-0.00603324
94	0xbcde74b4	-0.027155258
95	0xbc45f626	-0.012082612
96	0x3d4acd99	0.04951248
97	0x3c245008	0.010028847
98	0xbd14d4a4	-0.036335602
99	0xbd00e1b0	-0.031465232
100	0xb9828630	-0.0002489551
101	0xbd50a97e	-0.05094289
102	0xbd0b3ed2	-0.033995457
103	0x3cad6dff	0.021170614
104	0xba313046	-0.00067592075
105	0x3d1804f6	0.037114106
106	0xbc6cde55	-0.014457305
107	0x3ce19af2	0.027539704
108	0xbd37cbb8	-0.044872016
109	0xbc4eb949	-0.012617418
110	0xbd33a705	-0.043860454
111	0xbca6a021	-0.020340027
112	0x3d16e49e	0.03683912
113	0x3c9c8b70	0.019109458
114	0xbd2a24ae	-0.041538887
115	0xbc7d3b5a	-0.015456045
116	0xbc8c5049	-0.017128127
117	0xbbe2a567	-0.00691669
118	0xbccf0a0f	-0.025273351
119	0xbc84d38c	-0.016214155
120	0xbd24c764	-0.040229216
121	0xbc67c48d	-0.014145982
122	0xbd1965e9	-0.037450705
123	0xbc037aba	-0.008024866
124	0xbce0fff4	-0.027465798
125	0x3cf95b3c	0.030439012
126	0x3b03aeda	0.0020093233
127	0x3c3f14ab	0.0116626425
128	0x3b9ef0b1	0.00485047
129	0xbbb0ad90	-0.005391784
130	0x3cfbf098	0.030754372
131	0x3d1e9c67	0.038723376
132	0x3cdb9b71	0.026807519
133	0xbd345fde	-0.04403674
134	0x3d70b623	0.05876745
135	0xbd3268b9	-0.043556903
136	0x3c2f0910	0.010683313
137	0x3b872450	0.004124202
138	0xbd528179	-0.051393006
139	0x3b720e9a	0.0036934973
140	0xbcc81f3f	-0.024428962
141	0x3cfd9c65	0.030958364
142	0x3c2f099d	0.010683444
143	0xbcd49539	-0.025950061
144	0x3c4f39fa	0.0126481
145	0x3c371081	0.011173368
146	0xbcb55322	-0.022134367
147	0xbcaa8ddd	-0.020819599
148	0xbc467b63	-0.012114379
149	0xbcd21314	-0.025643863
150	0x3b3ea68f	0.0029090976
151	0x3c82b0d0	0.015953451
152	0xbcc254f8	-0.023722157
153	0x3d3af77e	0.045646183
154	0x3be3990b	0.0069457344
155	0xbc0836de	-0.008313863
156	0x3d550731	0.05200881
157	0xbce8310a	-0.028343696
158	0xb9727f3e	-0.0002312632
159	0x3cc4e50c	0.024035
160	0x3d358a66	0.04432144
161	0xbd3f11aa	-0.046647705
162	0xbc9d6681	-0.019213917
163	0x3c80ae8a	0.015708227
164	0x3c25b11f	0.01011303
165	0xbcfc69cd	-0.030812168
166	0x3b82c5b1	0.003990852
167	0x3c751591	0.014958755
168	0x3c160925	0.009157454
169	0x3d0e863d	0.03479599
170	0xbd2ad6c6	-0.04170873
171	0x3c6bf6cc	0.014402103
172	0x3d338474	0.04382749
173	0xbc858302	-0.016297821
174	0xbcaaa9d0	-0.020832926
175	0x3b184347	0.002323346
176	0xbd322b93	-0.043498587
177	0x3bced739	0.0063122776
178	0xbd108594	-0.03528364
179	0x3d8c7e65	0.06860045
180	0x3d1f03d4	0.03882201
181	0xbc9df9e1	-0.01928419
182	0xbc23c208	-0.009994991
183	0xbb12671b	-0.0022339288
184	0x3d26e1fc	0.04074286
185	0x3c6201d4	0.013794381
186	0x3c0e9a74	0.008703817
187	0xbc43e217	-0.0119557595
188	0x3c55d603	0.013051513
189	0xbd1f9248	-0.038957864
190	0xbc3fd939	-0.011709505
191	0x3c9dd13c	0.01926481
192	0x3cb656f0	0.022258252
193	0xbd1beefc	-0.03806971
194	0x3c907932	0.017635915
195	0x3c85a308	0.01631309
196	0x3b4fb432	0.0031693098
197	0x3cb78eb8	0.02240692
198	0xbd3808ec	-0.044930384
199	0xbd1ab906	-0.03777411
200	0xbd14f89e	-0.036369912
201	0xbce8b86a	-0.028408248
202	0xbc2e97d4	-0.010656316
203	0xbd30c8a6	-0.043160103
204	0xbd6685b8	-0.056279868
205	0xbcc5373e	-0.024074193
206	0x3c086e55	0.008327086
207	0xbc5b63c0	-0.0133904815
208	0x3d2b2fc2	0.041793592
209	0xbcff9340	-0.031198144
210	0x3a4c2c4c	0.0007788583
211	0x3d1205e5	0.035650153
212	0xbcae5a16	-0.02128319
213	0xbb86a6da	-0.0041092457
214	0xbc972f9f	-0.018455325
215	0x3b05bdd7	0.0020407343
216	0xbc6b304d	-0.0143547775
217	0xbd0f64fa	-0.035008408
218	0x3d27cfa7	0.040969517
219	0xbcae113a	-0.021248449
220	0xbd038e59	-0.032118175
221	0xbcbf986d	-0.023388112
222	0x3d26cd49	0.04072312
223	0xbd00a2a0	-0.03140509
224	0x3c937abd	0.018002862
225	0xbb55e7ed	-0.003263946
226	0xbc7562b6	-0.014977148
227	0x3b649bda	0.0034882934
228	0xbc898f1c	-0.016791873
229	0x3cf9c47b	0.030489197
230	0x3c86bf16	0.016448539
231	0x3d4de87b	0.05027054
232	0xbc3b7a48	-0.011442728
233	0x3b93dd34	0.0045124535
234	0x3d01bc65	0.031673808
235	0x3ca957b5	0.020671705
236	0x3bb5ad09	0.005544309
237	0xbc971f2b	-0.01844748
238	0xbbd14922	-0.006386892
239	0x3ce66a16	0.028126758
240	0x3b26d91f	0.0025459004
241	0x3bbcdad6	0.005763392
242	0x3c196475	0.00936233
243	0xbd2422f4	-0.040072396
244	0xbca420dd	-0.020035202
245	0xbd20153c	-0.03908275
246	0xbccdf540	-0.025141358
247	0x3cdffecf	0.027343182
248	0xbcf76cae	-0.03020319
249	0xbd2a819a	-0.041627504
250	0x3a9c21bc	0.0011911909
251	0x3c715bc4	0.014731351
252	0xbd7021d5	-0.058626015
253	0xbd4d2944	-0.050088182
254	0xbc276f2f	-0.010219379
255	0xbd13e8ac	-0.036110565

encoder.2.0.convs.1.bias f4 [64]
0	0x3bbab8d6	0.0056983037
1	0xbd12f872	-0.035881467
2	0x3d04d57e	0.032430165
3	0x3d219d51	0.03945667
4	0x3d05fa0a	0.03270916
5	0x3d0296de	0.03188216
6	0xbb225b05	-0.002477349
7	0xbc98fff9	-0.018676745
8	0x3cc6b804	0.024257667
9	0x3cbae957	0.022816343
10	0xbd093949	-0.033501897
11	0x3d19c8f1	0.03754515
12	0x3c8667db	0.016406944
13	0x3c165028	0.009174384
14	0xbcd7810c	-0.026306652
15	0x3c951ddf	0.01820272
16	0xbcc78865	-0.02435703
17	0x3d160757	0.036628094
18	0xbbc22240	-0.005924493
19	0xbc5e665d	-0.01357421
20	0xbbe2e738	-0.006924536
21	0x3c48a91a	0.012247348
22	0x3c209e4d	0.009803367
23	0x3b61bc32	0.0034444449
24	0xbce12cf7	-0.027487261
25	0xbd26910c	-0.04066567
26	0xbbfa8ad8	-0.007645946
27	0x3bf6ac77	0.0075278836
28	0xbcb376c3	-0.021907216
29	0x3b5b1fa6	0.0033435612
30	0x3d031e8f	0.032011565
31	0x3bd408b2	0.006470763
32	0x3d19bcbf	0.037533518
33	0x3ccb5de2	0.02482504
34	0xbc875fb9	-0.016525136
35	0xbc3b1645	-0.011418884
36	0x3bb1156c	0.005404165
37	0xbd030fe7	-0.031997588
38	0x3bf8fb26	0.0075982986
39	0x3c9e086c	0.019291125
40	0xbc35d5f3	-0.011098373
41	0x3c732250	0.014839724
42	0xbc79fb7a	-0.015257711
43	0x3cce36bc	0.025172584
44	0x3d21e44e	0.03952437
45	0x3ce544bf	0.027986882
46	0x3caf6070	0.02140829
47	0xbcf91c56	-0.03040902
48	0x3bcf1bfe	0.0063204756
49	0xbc9646aa	-0.018344242
50	0x3ca61c81	0.020277264
51	0xbc29402b	-0.01033024
52	0x3c79ce25	0.015246903
53	0xbbd3d80a	-0.006464963
54	0xbd0cd545	-0.034383077
55	0x3d275719	0.040854547
56	0xbb0a637c	-0.0021116426
57	0xbc5a4629	-0.013322392
58	0xbcbbff8c	-0.022949003
59	0xbc88e05a	-0.016708542
60	0x3d000d1e	0.03126251
61	0x3c9aa071	0.018875333
62	0x3d09e93f	0.033669706
63	0x3b8d5d24	0.0043140817

encoder.2.0.convs.2.weight f4 [64]
0	0x3f828790	1.019762
1	0x3f861712	1.047579
2	0x3f7ef023	0.9958517
3	0x3f835dd7	1.0263013
4	0x3f7f3ccb	0.9970214
5	0x3f833a8a	1.025224
6	0x3f804b06	1.0022895
7	0x3f84bfdc	1.0371051
8	0x3f81749f	1.0113715
9	0x3f7f51c9	0.9973417
10	0x3f86b253	1.052317
11	0x3f84e2a0	1.038166
12	0x3f7c860e	0.9864205
13	0x3f81df50	1.0146275
14	0x3f7d764a	0.9900862
15	0x3f82e3e2	1.0225794
16	0x3f7f75c5	0.9978908
17	0x3f8269fe	1.0188596
18	0x3f82cf93	1.0219597
19	0x3f82466b	1.017774
20	0x3f81c767	1.0138978
21	0x3f830ce5	1.023831
22	0x3f7d3653	0.9891102
23	0x3f81957a	1.0123742
24	0x3f817fcf	1.0117129
25	0x3f7f85a0	0.9981327
26	0x3f8086d4	1.0041146
27	0x3f81e1a2	1.0146983
28	0x3f82779b	1.0192751
29	0x3f86faf7	1.0545338
30	0x3f834256	1.0254619
31	0x3f8276f2	1.0192549
32	0x3f848219	1.0352203
33	0x3f813060	1.0092888
34	0x3f86f186	1.0542457
35	0x3f84c93c	1.0373912
36	0x3f8418ac	1.0320029
37	0x3f7cb07c	0.98706794
38	0x3f801375	1.0005938
39	0x3f871764	1.0554013
40	0x3f7def19	0.9919296
41	0x3f8362dd	1.0264546
42	0x3f82f0f9	1.0229789
43	0x3f8c48d1	1.0959722
44	0x3f7e2b42	0.99284756
45	0x3f8241d9	1.0176345
46	0x3f781822	0.96911824
47	0x3f805fa3	1.0029186
48	0x3f8011e7	1.0005463
49	0x3f873f32	1.0566161
50	0x3f80936d	1.0044991
51	0x3f82301b	1.0170931
52	0x3f81c0da	1.0136979
53	0x3f81c06b	1.0136846
54	0x3f8090a6	1.0044143
55	0x3f7da0fe	0.9907378
56	0x3f7ff995	0.99990207
57	0x3f83aa87	1.0286416
58	0x3f7e793b	0.99403733
59	0x3f807d5e	1.0038259
60	0x3f7d858a	0.9903189
61	0x3f841c37	1.032111
62	0x3f81ec8d	1.0150315
63	0x3f83e308	1.030366

encoder.2.0.convs.2.bias f4 [64]
0	0x3b0dbadc	0.002162627
1	0x3c474f81	0.012164951
2	0xbab83ab8	-0.0014055585
3	0x3caaa038	0.020828351
4	0x3aa6995e	0.0012710502
5	0x3cee959e	0.029124077
6	0xbcdf43e0	-0.027254045
7	0x3c2b87db	0.010469402
8	0xba89e105	-0.0010519332
9	0xbd798bcf	-0.060924347
10	0x3d1de730	0.038550556
11	0x39830a4f	0.00024993948
12	0xbc0b8a8b	-0.008516918
13	0x3bd8013d	0.0065919445
14	0xbbf9bd15	-0.0076214173
15	0x3c53d32d	0.012928766
16	0xbc77d1f4	-0.01512574
17	0xbbd6e037	-0.00655749
18	0x3d22bbb4	0.03972979
19	0xbbc42acf	-0.0059865485
20	0xbc6cfce5	-0.014464592
21	0xbd096167	-0.033540156
22	0x39bbfd77	0.00035856265
23	0x3ca8ac8c	0.02059009
24	0xbd009fc8	-0.03140238
25	0xbc7f6323	-0.015587601
26	0xbcbf40ff	-0.023346422
27	0x3b575145	0.0032854837
28	0xbd1b0452	-0.037845917
29	0x3ca27649	0.019831793
30	0xbbc20410	-0.0059208944
31	0xbc988ade	-0.018620905
32	0x3d0aa557	0.033849087
33	0xbc7b8fb4	-0.015354086
34	0x3d12254b	0.035680097
35	0xbcbad1ce	-0.02280512
36	0xbcc7bf63	-0.024383252
37	0xbcc465c9	-0.023974316
38	0x3c13807f	0.009002804
39	0x3c899e82	0.016799215
40	0xbcc5be2c	-0.024138533
41	0x3b4bc792	0.0031094295
42	0x3c969239	0.018380271
43	0x3c4de8b4	0.012567688
44	0xbc86fa10	-0.016476661
45	0xbcbff4cb	-0.023432156
46	0xbce0dc1d	-0.027448708
47	0xbb926fba	-0.0044688853
48	0x3c95f4eb	0.018305263
49	0x3c374f19	0.011188292
50	0x3bada8d7	0.0052996683
51	0xbbaa5dd6	-0.0051991744
52	0x3ca60e21	0.020270409
53	0x3c8d3973	0.017239308
54	0x3c992373	0.018693661
55	0xbd07970d	-0.033103038
56	0xbc3e752d	-0.011624617
57	0xbc6ba0bc	-0.014381584
58	0x3b7c423d	0.003849163
59	0xbc5fd05e	-0.013660518
60	0xbc6cd562	-0.014455171
61	0x3d32d468	0.043659598
62	0xbc63ff66	-0.013915872
63	0x3bcd0d37	0.006257679

encoder.2.0.convs.2.running_mean f4 [64]
0	0x3bd5c2bb	0.006523458
1	0xbdce88ac	-0.10084662
2	0x3c843de2	0.01614279
3	0x3f188197	0.5957274
4	0xbecba439	-0.3977373
5	0x3e39e1ac	0.18152493
6	0x3dff4e40	0.12466097
7	0x3e845015	0.25842348
8	0x3e35cb62	0.17753366
9	0x3f22e8e2	0.636366
10	0xbeb25c02	-0.3483582
11	0x3e388a81	0.18021585
12	0xbe9d123c	-0.30677974
13	0xbe223984	-0.15842253
14	0xbe3759c4	-0.17905337
15	0xbe57afb7	-0.21063124
16	0x3e197d33	0.14989166
17	0xbea0d60c	-0.31413305
18	0xbe8b4af2	-0.27205616
19	0xbddc9897	-0.10771292
20	0x3e9c11ab	0.3048223
21	0x3e0747fe	0.13211057
22	0x3dcf57b1	0.10124148
23	0x3e1b4392	0.15162495
24	0xb84db510	-4.9044436e-05
25	0xbeeb3caf	-0.45944735
26	0x3dfc234d	0.123114206
27	0xbc985555	-0.018595377
28	0x3d94fdb4	0.072749525
29	0xbdfac8a6	-0.12245302
30	0x3e485201	0.19562532
31	0x3cd7576e	0.026286807
32	0x3e6db715	0.23214372
33	0xbdeb662c	-0.11494097
34	0xbe8d03e3	-0.27542028
35	0xbdde5cd6	-0.10857551
36	0xbd9100ff	-0.07080268
37	0xbea4e93b	-0.3220919
38	0x3dab2aa9	0.08357746
39	0x3da811be	0.08206509
40	0xbf3066e1	-0.6890698
41	0xbe462f6b	-0.19354026
42	0xbed73043	-0.42029008
43	0xbe6a6631	-0.22890545
44	0x3e96608d	0.29370537
45	0xbeada087	-0.33911535
46	0xbf1919ac	-0.598048
47	0xbe009058	-0.12555063
48	0x3e299d43	0.16563897
49	0xbe8203ec	-0.25393617
50	0x3e869676	0.26286668
51	0x3d2f1735	0.04274674
52	0xbe991e11	-0.2990575
53	0x3c7de956	0.015497526
54	0xbf335426	-0.70050275
55	0x3ca0fdf3	0.019652342
56	0xbe60cbbf	-0.21952723
57	0xbe918928	-0.28424954
58	0x3e055481	0.13020517
59	0xbe7c4a70	-0.2463777
60	0x3de1da96	0.1102802
61	0xbe8ea841	-0.27862743
62	0x3efac765	0.4898025
63	0x3e90fc96	0.28317708

encoder.2.0.convs.2.running_var f4 [64]
0	0x3e7acb2b	0.24491565
1	0x3eb91640	0.36149788
2	0x3e8ad6d1	0.27117017
3	0x3eda3b9c	0.42623603
4	0x3e9f860f	0.31156966
5	0x3e91d5f6	0.28483552
6	0x3ea2d248	0.31801057
7	0x3e02a8fe	0.12759778
8	0x3eff3dc0	0.498518
9	0x3e44a517	0.19203602
10	0x3efe07fd	0.4961547
11	0x3ee7e6af	0.45293185
12	0x3e81aed2	0.2532869
13	0x3e87eb65	0.2654678
14	0x3e82c289	0.25539044
15	0x3f187240	0.5954933
16	0x3eafcffd	0.3433837
17	0x3de28562	0.11060597
18	0x3e3129e1	0.17301132
19	0x3e579026	0.21051082
20	0x3eb25738	0.34832168
21	0x3dec2310	0.11530125
22	0x3eabdc17	0.33566353
23	0x3ea3e8ea	0.32013637
24	0x3e09a5a7	0.13442098
25	0x3e873aa6	0.26411933
26	0x3e55d1f4	0.20880872
27	0x3eb589c1	0.3545666
28	0x3e14b964	0.14523846
29	0x3e0ac1e2	0.13550523
30	0x3e4525c7	0.19252692
31	0x3e2fa374	0.17152196
32	0x3e58f5d7	0.2118753
33	0x3e4139d9	0.18869723
34	0x3e157982	0.14597133
35	0x3db0a861	0.08625866
36	0x3e0b5ee3	0.13610415
37	0x3e80eaf6	0.2517926
38	0x3e52c2e5	0.20582159
39	0x3e772d48	0.24138367
40	0x3e855d39	0.26047686
41	0x3e5c187a	0.21493712
42	0x3f1805f3	0.5938408
43	0x3e2a0323	0.16602759
44	0x3e8d51c6	0.2760145
45	0x3e3f3ad5	0.18674786
46	0x3eaf19eb	0.3419946
47	0x3eba83ce	0.36428684
48	0x3ec5dc0e	0.3864445
49	0x3e1422a7	0.14466344
50	0x3eab15a1	0.3341494
51	0x3e8a182d	0.2697157
52	0x3ec06e2d	0.37584057
53	0x3e8a8189	0.27051952
54	0x3ed02f4f	0.40661094
55	0x3e56e0fc	0.20984262
56	0x3e73d089	0.23810019
57	0x3dfdf6a1	0.12400556
58	0x3e32ca0a	0.17459884
59	0x3e1ee07f	0.15515326
60	0x3ea5b0e4	0.3236152
61	0x3f12e60a	0.5738226
62	0x3e80f9b3	0.25190505
63	0x3e889f4f	0.26684043
